<?xml version="1.0" ?>
<net name="bert-small-uncased-whole-word-masking-squad-0001" version="10">
	<layers>
		<layer id="0" name="attention_mask" type="Parameter" version="opset1">
			<data element_type="i32" shape="1, 384"/>
			<output>
				<port id="0" names="attention_mask" precision="I32">
					<dim>1</dim>
					<dim>384</dim>
				</port>
			</output>
		</layer>
		<layer id="1" name="token_type_ids" type="Parameter" version="opset1">
			<data element_type="i32" shape="1, 384"/>
			<output>
				<port id="0" names="token_type_ids" precision="I32">
					<dim>1</dim>
					<dim>384</dim>
				</port>
			</output>
		</layer>
		<layer id="2" name="input_ids" type="Parameter" version="opset1">
			<data element_type="i32" shape="1, 384"/>
			<output>
				<port id="0" names="input_ids" precision="I32">
					<dim>1</dim>
					<dim>384</dim>
				</port>
			</output>
		</layer>
		<layer id="3" name="bert.embeddings.word_embeddings.weight" type="Const" version="opset1">
			<data element_type="f16" offset="0" shape="30522, 1024" size="62509056"/>
			<output>
				<port id="0" names="bert.embeddings.word_embeddings.weight" precision="FP16">
					<dim>30522</dim>
					<dim>1024</dim>
				</port>
			</output>
		</layer>
		<layer id="4" name="302/axis" type="Const" version="opset1">
			<data element_type="i64" offset="62509056" shape="" size="8"/>
			<output>
				<port id="0" precision="I64"/>
			</output>
		</layer>
		<layer id="5" name="3022880" type="Gather" version="opset7">
			<data batch_dims="0"/>
			<input>
				<port id="0" precision="FP16">
					<dim>30522</dim>
					<dim>1024</dim>
				</port>
				<port id="1" precision="I32">
					<dim>1</dim>
					<dim>384</dim>
				</port>
				<port id="2" precision="I64"/>
			</input>
			<output>
				<port id="3" names="302" precision="FP16">
					<dim>1</dim>
					<dim>384</dim>
					<dim>1024</dim>
				</port>
			</output>
		</layer>
		<layer id="6" name="bert.embeddings.position_embeddings.weight" type="Const" version="opset1">
			<data element_type="f16" offset="62509064" shape="512, 1024" size="1048576"/>
			<output>
				<port id="0" names="bert.embeddings.position_embeddings.weight" precision="FP16">
					<dim>512</dim>
					<dim>1024</dim>
				</port>
			</output>
		</layer>
		<layer id="7" name="292/Broadcast/FillValue" type="Const" version="opset1">
			<data element_type="i64" offset="63557640" shape="1" size="8"/>
			<output>
				<port id="0" precision="I64">
					<dim>1</dim>
				</port>
			</output>
		</layer>
		<layer id="8" name="289" type="ShapeOf" version="opset3">
			<data output_type="i64"/>
			<input>
				<port id="0" precision="I32">
					<dim>1</dim>
					<dim>384</dim>
				</port>
			</input>
			<output>
				<port id="1" names="289" precision="I64">
					<dim>2</dim>
				</port>
			</output>
		</layer>
		<layer id="9" name="288" type="Const" version="opset1">
			<data element_type="i32" offset="63557648" shape="" size="4"/>
			<output>
				<port id="0" names="288" precision="I32"/>
			</output>
		</layer>
		<layer id="10" name="290/axis" type="Const" version="opset1">
			<data element_type="i64" offset="62509056" shape="" size="8"/>
			<output>
				<port id="0" precision="I64"/>
			</output>
		</layer>
		<layer id="11" name="2902992" type="Gather" version="opset7">
			<data batch_dims="0"/>
			<input>
				<port id="0" precision="I64">
					<dim>2</dim>
				</port>
				<port id="1" precision="I32"/>
				<port id="2" precision="I64"/>
			</input>
			<output>
				<port id="3" names="290" precision="I64"/>
			</output>
		</layer>
		<layer id="12" name="291/Dims" type="Const" version="opset1">
			<data element_type="i64" offset="62509056" shape="1" size="8"/>
			<output>
				<port id="0" precision="I64">
					<dim>1</dim>
				</port>
			</output>
		</layer>
		<layer id="13" name="291/Unsqueeze" type="Unsqueeze" version="opset1">
			<input>
				<port id="0" precision="I64"/>
				<port id="1" precision="I64">
					<dim>1</dim>
				</port>
			</input>
			<output>
				<port id="2" names="291" precision="I64">
					<dim>1</dim>
				</port>
			</output>
		</layer>
		<layer id="14" name="292/Broadcast" type="Broadcast" version="opset3">
			<data mode="numpy"/>
			<input>
				<port id="0" precision="I64">
					<dim>1</dim>
				</port>
				<port id="1" precision="I64">
					<dim>1</dim>
				</port>
			</input>
			<output>
				<port id="2" names="292" precision="I64">
					<dim>384</dim>
				</port>
			</output>
		</layer>
		<layer id="15" name="293" type="NonZero" version="opset3">
			<data output_type="i64"/>
			<input>
				<port id="0" precision="I64">
					<dim>384</dim>
				</port>
			</input>
			<output>
				<port id="1" names="293" precision="I64">
					<dim>1</dim>
					<dim>384</dim>
				</port>
			</output>
		</layer>
		<layer id="16" name="2004" type="Const" version="opset1">
			<data element_type="i64" offset="63557652" shape="2" size="16"/>
			<output>
				<port id="0" precision="I64">
					<dim>2</dim>
				</port>
			</output>
		</layer>
		<layer id="17" name="294" type="Transpose" version="opset1">
			<input>
				<port id="0" precision="I64">
					<dim>1</dim>
					<dim>384</dim>
				</port>
				<port id="1" precision="I64">
					<dim>2</dim>
				</port>
			</input>
			<output>
				<port id="2" names="294" precision="I64">
					<dim>384</dim>
					<dim>1</dim>
				</port>
			</output>
		</layer>
		<layer id="18" name="295/Dims" type="Const" version="opset1">
			<data element_type="i64" offset="63557640" shape="1" size="8"/>
			<output>
				<port id="0" precision="I64">
					<dim>1</dim>
				</port>
			</output>
		</layer>
		<layer id="19" name="295" type="Squeeze" version="opset1">
			<input>
				<port id="0" precision="I64">
					<dim>384</dim>
					<dim>1</dim>
				</port>
				<port id="1" precision="I64">
					<dim>1</dim>
				</port>
			</input>
			<output>
				<port id="2" names="295,296" precision="I64">
					<dim>384</dim>
				</port>
			</output>
		</layer>
		<layer id="20" name="297/Dims" type="Const" version="opset1">
			<data element_type="i64" offset="62509056" shape="1" size="8"/>
			<output>
				<port id="0" precision="I64">
					<dim>1</dim>
				</port>
			</output>
		</layer>
		<layer id="21" name="297/Unsqueeze" type="Unsqueeze" version="opset1">
			<input>
				<port id="0" precision="I64">
					<dim>384</dim>
				</port>
				<port id="1" precision="I64">
					<dim>1</dim>
				</port>
			</input>
			<output>
				<port id="2" names="297" precision="I64">
					<dim>1</dim>
					<dim>384</dim>
				</port>
			</output>
		</layer>
		<layer id="22" name="286" type="ShapeOf" version="opset3">
			<data output_type="i64"/>
			<input>
				<port id="0" precision="I32">
					<dim>1</dim>
					<dim>384</dim>
				</port>
			</input>
			<output>
				<port id="1" names="286" precision="I64">
					<dim>2</dim>
				</port>
			</output>
		</layer>
		<layer id="23" name="285" type="Const" version="opset1">
			<data element_type="i32" offset="63557668" shape="" size="4"/>
			<output>
				<port id="0" names="285" precision="I32"/>
			</output>
		</layer>
		<layer id="24" name="287/axis" type="Const" version="opset1">
			<data element_type="i64" offset="62509056" shape="" size="8"/>
			<output>
				<port id="0" precision="I64"/>
			</output>
		</layer>
		<layer id="25" name="2872916" type="Gather" version="opset7">
			<data batch_dims="0"/>
			<input>
				<port id="0" precision="I64">
					<dim>2</dim>
				</port>
				<port id="1" precision="I32"/>
				<port id="2" precision="I64"/>
			</input>
			<output>
				<port id="3" names="287" precision="I64"/>
			</output>
		</layer>
		<layer id="26" name="298/Dims" type="Const" version="opset1">
			<data element_type="i64" offset="62509056" shape="1" size="8"/>
			<output>
				<port id="0" precision="I64">
					<dim>1</dim>
				</port>
			</output>
		</layer>
		<layer id="27" name="298/Unsqueeze" type="Unsqueeze" version="opset1">
			<input>
				<port id="0" precision="I64"/>
				<port id="1" precision="I64">
					<dim>1</dim>
				</port>
			</input>
			<output>
				<port id="2" names="298" precision="I64">
					<dim>1</dim>
				</port>
			</output>
		</layer>
		<layer id="28" name="299/Dims" type="Const" version="opset1">
			<data element_type="i64" offset="62509056" shape="1" size="8"/>
			<output>
				<port id="0" precision="I64">
					<dim>1</dim>
				</port>
			</output>
		</layer>
		<layer id="29" name="299/Unsqueeze" type="Unsqueeze" version="opset1">
			<input>
				<port id="0" precision="I64"/>
				<port id="1" precision="I64">
					<dim>1</dim>
				</port>
			</input>
			<output>
				<port id="2" names="299" precision="I64">
					<dim>1</dim>
				</port>
			</output>
		</layer>
		<layer id="30" name="300" type="Concat" version="opset1">
			<data axis="0"/>
			<input>
				<port id="0" precision="I64">
					<dim>1</dim>
				</port>
				<port id="1" precision="I64">
					<dim>1</dim>
				</port>
			</input>
			<output>
				<port id="2" names="300" precision="I64">
					<dim>2</dim>
				</port>
			</output>
		</layer>
		<layer id="31" name="301" type="Broadcast" version="opset3">
			<data mode="bidirectional"/>
			<input>
				<port id="0" precision="I64">
					<dim>1</dim>
					<dim>384</dim>
				</port>
				<port id="1" precision="I64">
					<dim>2</dim>
				</port>
			</input>
			<output>
				<port id="2" precision="I64">
					<dim>1</dim>
					<dim>384</dim>
				</port>
			</output>
		</layer>
		<layer id="32" name="3032886/Cast_1" type="Convert" version="opset1">
			<data destination_type="i32"/>
			<input>
				<port id="0" precision="I64">
					<dim>1</dim>
					<dim>384</dim>
				</port>
			</input>
			<output>
				<port id="1" names="301" precision="I32">
					<dim>1</dim>
					<dim>384</dim>
				</port>
			</output>
		</layer>
		<layer id="33" name="303/axis" type="Const" version="opset1">
			<data element_type="i64" offset="62509056" shape="" size="8"/>
			<output>
				<port id="0" precision="I64"/>
			</output>
		</layer>
		<layer id="34" name="3032886" type="Gather" version="opset7">
			<data batch_dims="0"/>
			<input>
				<port id="0" precision="FP16">
					<dim>512</dim>
					<dim>1024</dim>
				</port>
				<port id="1" precision="I32">
					<dim>1</dim>
					<dim>384</dim>
				</port>
				<port id="2" precision="I64"/>
			</input>
			<output>
				<port id="3" names="303" precision="FP16">
					<dim>1</dim>
					<dim>384</dim>
					<dim>1024</dim>
				</port>
			</output>
		</layer>
		<layer id="35" name="305" type="Add" version="opset1">
			<data auto_broadcast="numpy"/>
			<input>
				<port id="0" precision="FP16">
					<dim>1</dim>
					<dim>384</dim>
					<dim>1024</dim>
				</port>
				<port id="1" precision="FP16">
					<dim>1</dim>
					<dim>384</dim>
					<dim>1024</dim>
				</port>
			</input>
			<output>
				<port id="2" names="305" precision="FP16">
					<dim>1</dim>
					<dim>384</dim>
					<dim>1024</dim>
				</port>
			</output>
		</layer>
		<layer id="36" name="bert.embeddings.token_type_embeddings.weight" type="Const" version="opset1">
			<data element_type="f16" offset="63557672" shape="2, 1024" size="4096"/>
			<output>
				<port id="0" names="bert.embeddings.token_type_embeddings.weight" precision="FP16">
					<dim>2</dim>
					<dim>1024</dim>
				</port>
			</output>
		</layer>
		<layer id="37" name="304/axis" type="Const" version="opset1">
			<data element_type="i64" offset="62509056" shape="" size="8"/>
			<output>
				<port id="0" precision="I64"/>
			</output>
		</layer>
		<layer id="38" name="3042968" type="Gather" version="opset7">
			<data batch_dims="0"/>
			<input>
				<port id="0" precision="FP16">
					<dim>2</dim>
					<dim>1024</dim>
				</port>
				<port id="1" precision="I32">
					<dim>1</dim>
					<dim>384</dim>
				</port>
				<port id="2" precision="I64"/>
			</input>
			<output>
				<port id="3" names="304" precision="FP16">
					<dim>1</dim>
					<dim>384</dim>
					<dim>1024</dim>
				</port>
			</output>
		</layer>
		<layer id="39" name="306" type="Add" version="opset1">
			<data auto_broadcast="numpy"/>
			<input>
				<port id="0" precision="FP16">
					<dim>1</dim>
					<dim>384</dim>
					<dim>1024</dim>
				</port>
				<port id="1" precision="FP16">
					<dim>1</dim>
					<dim>384</dim>
					<dim>1024</dim>
				</port>
			</input>
			<output>
				<port id="2" names="306" precision="FP16">
					<dim>1</dim>
					<dim>384</dim>
					<dim>1024</dim>
				</port>
			</output>
		</layer>
		<layer id="40" name="2654_input_port_1/value" type="Const" version="opset1">
			<data element_type="i64" offset="63561768" shape="1" size="8"/>
			<output>
				<port id="0" precision="I64">
					<dim>1</dim>
				</port>
			</output>
		</layer>
		<layer id="41" name="315" type="MVN" version="opset6">
			<data eps="9.999999960041972e-13" eps_mode="INSIDE_SQRT" normalize_variance="true"/>
			<input>
				<port id="0" precision="FP16">
					<dim>1</dim>
					<dim>384</dim>
					<dim>1024</dim>
				</port>
				<port id="1" precision="I64">
					<dim>1</dim>
				</port>
			</input>
			<output>
				<port id="2" names="315" precision="FP16">
					<dim>1</dim>
					<dim>384</dim>
					<dim>1024</dim>
				</port>
			</output>
		</layer>
		<layer id="42" name="bert.embeddings.LayerNorm.weight" type="Const" version="opset1">
			<data element_type="f16" offset="63561776" shape="1, 1, 1024" size="2048"/>
			<output>
				<port id="0" names="bert.embeddings.LayerNorm.weight" precision="FP16">
					<dim>1</dim>
					<dim>1</dim>
					<dim>1024</dim>
				</port>
			</output>
		</layer>
		<layer id="43" name="316" type="Multiply" version="opset1">
			<data auto_broadcast="numpy"/>
			<input>
				<port id="0" precision="FP16">
					<dim>1</dim>
					<dim>384</dim>
					<dim>1024</dim>
				</port>
				<port id="1" precision="FP16">
					<dim>1</dim>
					<dim>1</dim>
					<dim>1024</dim>
				</port>
			</input>
			<output>
				<port id="2" names="316" precision="FP16">
					<dim>1</dim>
					<dim>384</dim>
					<dim>1024</dim>
				</port>
			</output>
		</layer>
		<layer id="44" name="bert.embeddings.LayerNorm.bias" type="Const" version="opset1">
			<data element_type="f16" offset="63563824" shape="1, 1, 1024" size="2048"/>
			<output>
				<port id="0" names="bert.embeddings.LayerNorm.bias" precision="FP16">
					<dim>1</dim>
					<dim>1</dim>
					<dim>1024</dim>
				</port>
			</output>
		</layer>
		<layer id="45" name="317" type="Add" version="opset1">
			<data auto_broadcast="numpy"/>
			<input>
				<port id="0" precision="FP16">
					<dim>1</dim>
					<dim>384</dim>
					<dim>1024</dim>
				</port>
				<port id="1" precision="FP16">
					<dim>1</dim>
					<dim>1</dim>
					<dim>1024</dim>
				</port>
			</input>
			<output>
				<port id="2" names="317" precision="FP16">
					<dim>1</dim>
					<dim>384</dim>
					<dim>1024</dim>
				</port>
			</output>
		</layer>
		<layer id="46" name="318" type="Const" version="opset1">
			<data element_type="f16" offset="63565872" shape="512, 1024" size="1048576"/>
			<output>
				<port id="0" names="318" precision="FP16">
					<dim>512</dim>
					<dim>1024</dim>
				</port>
			</output>
		</layer>
		<layer id="47" name="319" type="MatMul" version="opset1">
			<data transpose_a="false" transpose_b="true"/>
			<input>
				<port id="0" precision="FP16">
					<dim>1</dim>
					<dim>384</dim>
					<dim>1024</dim>
				</port>
				<port id="1" precision="FP16">
					<dim>512</dim>
					<dim>1024</dim>
				</port>
			</input>
			<output>
				<port id="2" names="319" precision="FP16">
					<dim>1</dim>
					<dim>384</dim>
					<dim>512</dim>
				</port>
			</output>
		</layer>
		<layer id="48" name="bert.encoder.input_transform.bias" type="Const" version="opset1">
			<data element_type="f16" offset="64614448" shape="1, 1, 512" size="1024"/>
			<output>
				<port id="0" names="bert.encoder.input_transform.bias" precision="FP16">
					<dim>1</dim>
					<dim>1</dim>
					<dim>512</dim>
				</port>
			</output>
		</layer>
		<layer id="49" name="320" type="Add" version="opset1">
			<data auto_broadcast="numpy"/>
			<input>
				<port id="0" precision="FP16">
					<dim>1</dim>
					<dim>384</dim>
					<dim>512</dim>
				</port>
				<port id="1" precision="FP16">
					<dim>1</dim>
					<dim>1</dim>
					<dim>512</dim>
				</port>
			</input>
			<output>
				<port id="2" names="320" precision="FP16">
					<dim>1</dim>
					<dim>384</dim>
					<dim>512</dim>
				</port>
			</output>
		</layer>
		<layer id="50" name="321" type="Const" version="opset1">
			<data element_type="f16" offset="64615472" shape="512, 512" size="524288"/>
			<output>
				<port id="0" names="321" precision="FP16">
					<dim>512</dim>
					<dim>512</dim>
				</port>
			</output>
		</layer>
		<layer id="51" name="322" type="MatMul" version="opset1">
			<data transpose_a="false" transpose_b="true"/>
			<input>
				<port id="0" precision="FP16">
					<dim>1</dim>
					<dim>384</dim>
					<dim>512</dim>
				</port>
				<port id="1" precision="FP16">
					<dim>512</dim>
					<dim>512</dim>
				</port>
			</input>
			<output>
				<port id="2" names="322" precision="FP16">
					<dim>1</dim>
					<dim>384</dim>
					<dim>512</dim>
				</port>
			</output>
		</layer>
		<layer id="52" name="bert.encoder.layer.0.attention.self.query.bias" type="Const" version="opset1">
			<data element_type="f16" offset="65139760" shape="1, 1, 512" size="1024"/>
			<output>
				<port id="0" names="bert.encoder.layer.0.attention.self.query.bias" precision="FP16">
					<dim>1</dim>
					<dim>1</dim>
					<dim>512</dim>
				</port>
			</output>
		</layer>
		<layer id="53" name="323" type="Add" version="opset1">
			<data auto_broadcast="numpy"/>
			<input>
				<port id="0" precision="FP16">
					<dim>1</dim>
					<dim>384</dim>
					<dim>512</dim>
				</port>
				<port id="1" precision="FP16">
					<dim>1</dim>
					<dim>1</dim>
					<dim>512</dim>
				</port>
			</input>
			<output>
				<port id="2" names="323" precision="FP16">
					<dim>1</dim>
					<dim>384</dim>
					<dim>512</dim>
				</port>
			</output>
		</layer>
		<layer id="54" name="331" type="ShapeOf" version="opset3">
			<data output_type="i64"/>
			<input>
				<port id="0" precision="FP16">
					<dim>1</dim>
					<dim>384</dim>
					<dim>512</dim>
				</port>
			</input>
			<output>
				<port id="1" names="331" precision="I64">
					<dim>3</dim>
				</port>
			</output>
		</layer>
		<layer id="55" name="330" type="Const" version="opset1">
			<data element_type="i32" offset="63557668" shape="" size="4"/>
			<output>
				<port id="0" names="330" precision="I32"/>
			</output>
		</layer>
		<layer id="56" name="332/axis" type="Const" version="opset1">
			<data element_type="i64" offset="62509056" shape="" size="8"/>
			<output>
				<port id="0" precision="I64"/>
			</output>
		</layer>
		<layer id="57" name="3322946" type="Gather" version="opset7">
			<data batch_dims="0"/>
			<input>
				<port id="0" precision="I64">
					<dim>3</dim>
				</port>
				<port id="1" precision="I32"/>
				<port id="2" precision="I64"/>
			</input>
			<output>
				<port id="3" names="332" precision="I64"/>
			</output>
		</layer>
		<layer id="58" name="338/Dims" type="Const" version="opset1">
			<data element_type="i64" offset="62509056" shape="1" size="8"/>
			<output>
				<port id="0" precision="I64">
					<dim>1</dim>
				</port>
			</output>
		</layer>
		<layer id="59" name="338/Unsqueeze" type="Unsqueeze" version="opset1">
			<input>
				<port id="0" precision="I64"/>
				<port id="1" precision="I64">
					<dim>1</dim>
				</port>
			</input>
			<output>
				<port id="2" names="338" precision="I64">
					<dim>1</dim>
				</port>
			</output>
		</layer>
		<layer id="60" name="334" type="ShapeOf" version="opset3">
			<data output_type="i64"/>
			<input>
				<port id="0" precision="FP16">
					<dim>1</dim>
					<dim>384</dim>
					<dim>512</dim>
				</port>
			</input>
			<output>
				<port id="1" names="334" precision="I64">
					<dim>3</dim>
				</port>
			</output>
		</layer>
		<layer id="61" name="333" type="Const" version="opset1">
			<data element_type="i32" offset="63557648" shape="" size="4"/>
			<output>
				<port id="0" names="333" precision="I32"/>
			</output>
		</layer>
		<layer id="62" name="335/axis" type="Const" version="opset1">
			<data element_type="i64" offset="62509056" shape="" size="8"/>
			<output>
				<port id="0" precision="I64"/>
			</output>
		</layer>
		<layer id="63" name="3353028" type="Gather" version="opset7">
			<data batch_dims="0"/>
			<input>
				<port id="0" precision="I64">
					<dim>3</dim>
				</port>
				<port id="1" precision="I32"/>
				<port id="2" precision="I64"/>
			</input>
			<output>
				<port id="3" names="335" precision="I64"/>
			</output>
		</layer>
		<layer id="64" name="339/Dims" type="Const" version="opset1">
			<data element_type="i64" offset="62509056" shape="1" size="8"/>
			<output>
				<port id="0" precision="I64">
					<dim>1</dim>
				</port>
			</output>
		</layer>
		<layer id="65" name="339/Unsqueeze" type="Unsqueeze" version="opset1">
			<input>
				<port id="0" precision="I64"/>
				<port id="1" precision="I64">
					<dim>1</dim>
				</port>
			</input>
			<output>
				<port id="2" names="339" precision="I64">
					<dim>1</dim>
				</port>
			</output>
		</layer>
		<layer id="66" name="340/Unsqueeze" type="Const" version="opset1">
			<data element_type="i64" offset="65140784" shape="1" size="8"/>
			<output>
				<port id="0" names="340" precision="I64">
					<dim>1</dim>
				</port>
			</output>
		</layer>
		<layer id="67" name="341/Unsqueeze" type="Const" version="opset1">
			<data element_type="i64" offset="65140792" shape="1" size="8"/>
			<output>
				<port id="0" names="341" precision="I64">
					<dim>1</dim>
				</port>
			</output>
		</layer>
		<layer id="68" name="342" type="Concat" version="opset1">
			<data axis="0"/>
			<input>
				<port id="0" precision="I64">
					<dim>1</dim>
				</port>
				<port id="1" precision="I64">
					<dim>1</dim>
				</port>
				<port id="2" precision="I64">
					<dim>1</dim>
				</port>
				<port id="3" precision="I64">
					<dim>1</dim>
				</port>
			</input>
			<output>
				<port id="4" names="342" precision="I64">
					<dim>4</dim>
				</port>
			</output>
		</layer>
		<layer id="69" name="343" type="Reshape" version="opset1">
			<data special_zero="true"/>
			<input>
				<port id="0" precision="FP16">
					<dim>1</dim>
					<dim>384</dim>
					<dim>512</dim>
				</port>
				<port id="1" precision="I64">
					<dim>4</dim>
				</port>
			</input>
			<output>
				<port id="2" names="343" precision="FP16">
					<dim>1</dim>
					<dim>384</dim>
					<dim>8</dim>
					<dim>64</dim>
				</port>
			</output>
		</layer>
		<layer id="70" name="2086" type="Const" version="opset1">
			<data element_type="i64" offset="65140800" shape="4" size="32"/>
			<output>
				<port id="0" precision="I64">
					<dim>4</dim>
				</port>
			</output>
		</layer>
		<layer id="71" name="344" type="Transpose" version="opset1">
			<input>
				<port id="0" precision="FP16">
					<dim>1</dim>
					<dim>384</dim>
					<dim>8</dim>
					<dim>64</dim>
				</port>
				<port id="1" precision="I64">
					<dim>4</dim>
				</port>
			</input>
			<output>
				<port id="2" names="344" precision="FP16">
					<dim>1</dim>
					<dim>8</dim>
					<dim>384</dim>
					<dim>64</dim>
				</port>
			</output>
		</layer>
		<layer id="72" name="324" type="Const" version="opset1">
			<data element_type="f16" offset="65140832" shape="512, 512" size="524288"/>
			<output>
				<port id="0" names="324" precision="FP16">
					<dim>512</dim>
					<dim>512</dim>
				</port>
			</output>
		</layer>
		<layer id="73" name="325" type="MatMul" version="opset1">
			<data transpose_a="false" transpose_b="true"/>
			<input>
				<port id="0" precision="FP16">
					<dim>1</dim>
					<dim>384</dim>
					<dim>512</dim>
				</port>
				<port id="1" precision="FP16">
					<dim>512</dim>
					<dim>512</dim>
				</port>
			</input>
			<output>
				<port id="2" names="325" precision="FP16">
					<dim>1</dim>
					<dim>384</dim>
					<dim>512</dim>
				</port>
			</output>
		</layer>
		<layer id="74" name="bert.encoder.layer.0.attention.self.key.bias" type="Const" version="opset1">
			<data element_type="f16" offset="65665120" shape="1, 1, 512" size="1024"/>
			<output>
				<port id="0" names="bert.encoder.layer.0.attention.self.key.bias" precision="FP16">
					<dim>1</dim>
					<dim>1</dim>
					<dim>512</dim>
				</port>
			</output>
		</layer>
		<layer id="75" name="326" type="Add" version="opset1">
			<data auto_broadcast="numpy"/>
			<input>
				<port id="0" precision="FP16">
					<dim>1</dim>
					<dim>384</dim>
					<dim>512</dim>
				</port>
				<port id="1" precision="FP16">
					<dim>1</dim>
					<dim>1</dim>
					<dim>512</dim>
				</port>
			</input>
			<output>
				<port id="2" names="326" precision="FP16">
					<dim>1</dim>
					<dim>384</dim>
					<dim>512</dim>
				</port>
			</output>
		</layer>
		<layer id="76" name="346" type="ShapeOf" version="opset3">
			<data output_type="i64"/>
			<input>
				<port id="0" precision="FP16">
					<dim>1</dim>
					<dim>384</dim>
					<dim>512</dim>
				</port>
			</input>
			<output>
				<port id="1" names="346" precision="I64">
					<dim>3</dim>
				</port>
			</output>
		</layer>
		<layer id="77" name="345" type="Const" version="opset1">
			<data element_type="i32" offset="63557668" shape="" size="4"/>
			<output>
				<port id="0" names="345" precision="I32"/>
			</output>
		</layer>
		<layer id="78" name="347/axis" type="Const" version="opset1">
			<data element_type="i64" offset="62509056" shape="" size="8"/>
			<output>
				<port id="0" precision="I64"/>
			</output>
		</layer>
		<layer id="79" name="3472864" type="Gather" version="opset7">
			<data batch_dims="0"/>
			<input>
				<port id="0" precision="I64">
					<dim>3</dim>
				</port>
				<port id="1" precision="I32"/>
				<port id="2" precision="I64"/>
			</input>
			<output>
				<port id="3" names="347" precision="I64"/>
			</output>
		</layer>
		<layer id="80" name="353/Dims" type="Const" version="opset1">
			<data element_type="i64" offset="62509056" shape="1" size="8"/>
			<output>
				<port id="0" precision="I64">
					<dim>1</dim>
				</port>
			</output>
		</layer>
		<layer id="81" name="353/Unsqueeze" type="Unsqueeze" version="opset1">
			<input>
				<port id="0" precision="I64"/>
				<port id="1" precision="I64">
					<dim>1</dim>
				</port>
			</input>
			<output>
				<port id="2" names="353" precision="I64">
					<dim>1</dim>
				</port>
			</output>
		</layer>
		<layer id="82" name="349" type="ShapeOf" version="opset3">
			<data output_type="i64"/>
			<input>
				<port id="0" precision="FP16">
					<dim>1</dim>
					<dim>384</dim>
					<dim>512</dim>
				</port>
			</input>
			<output>
				<port id="1" names="349" precision="I64">
					<dim>3</dim>
				</port>
			</output>
		</layer>
		<layer id="83" name="348" type="Const" version="opset1">
			<data element_type="i32" offset="63557648" shape="" size="4"/>
			<output>
				<port id="0" names="348" precision="I32"/>
			</output>
		</layer>
		<layer id="84" name="350/axis" type="Const" version="opset1">
			<data element_type="i64" offset="62509056" shape="" size="8"/>
			<output>
				<port id="0" precision="I64"/>
			</output>
		</layer>
		<layer id="85" name="3503024" type="Gather" version="opset7">
			<data batch_dims="0"/>
			<input>
				<port id="0" precision="I64">
					<dim>3</dim>
				</port>
				<port id="1" precision="I32"/>
				<port id="2" precision="I64"/>
			</input>
			<output>
				<port id="3" names="350" precision="I64"/>
			</output>
		</layer>
		<layer id="86" name="354/Dims" type="Const" version="opset1">
			<data element_type="i64" offset="62509056" shape="1" size="8"/>
			<output>
				<port id="0" precision="I64">
					<dim>1</dim>
				</port>
			</output>
		</layer>
		<layer id="87" name="354/Unsqueeze" type="Unsqueeze" version="opset1">
			<input>
				<port id="0" precision="I64"/>
				<port id="1" precision="I64">
					<dim>1</dim>
				</port>
			</input>
			<output>
				<port id="2" names="354" precision="I64">
					<dim>1</dim>
				</port>
			</output>
		</layer>
		<layer id="88" name="355/Unsqueeze" type="Const" version="opset1">
			<data element_type="i64" offset="65140784" shape="1" size="8"/>
			<output>
				<port id="0" names="355" precision="I64">
					<dim>1</dim>
				</port>
			</output>
		</layer>
		<layer id="89" name="356/Unsqueeze" type="Const" version="opset1">
			<data element_type="i64" offset="65140792" shape="1" size="8"/>
			<output>
				<port id="0" names="356" precision="I64">
					<dim>1</dim>
				</port>
			</output>
		</layer>
		<layer id="90" name="357" type="Concat" version="opset1">
			<data axis="0"/>
			<input>
				<port id="0" precision="I64">
					<dim>1</dim>
				</port>
				<port id="1" precision="I64">
					<dim>1</dim>
				</port>
				<port id="2" precision="I64">
					<dim>1</dim>
				</port>
				<port id="3" precision="I64">
					<dim>1</dim>
				</port>
			</input>
			<output>
				<port id="4" names="357" precision="I64">
					<dim>4</dim>
				</port>
			</output>
		</layer>
		<layer id="91" name="358" type="Reshape" version="opset1">
			<data special_zero="true"/>
			<input>
				<port id="0" precision="FP16">
					<dim>1</dim>
					<dim>384</dim>
					<dim>512</dim>
				</port>
				<port id="1" precision="I64">
					<dim>4</dim>
				</port>
			</input>
			<output>
				<port id="2" names="358" precision="FP16">
					<dim>1</dim>
					<dim>384</dim>
					<dim>8</dim>
					<dim>64</dim>
				</port>
			</output>
		</layer>
		<layer id="92" name="2074" type="Const" version="opset1">
			<data element_type="i64" offset="65666144" shape="4" size="32"/>
			<output>
				<port id="0" precision="I64">
					<dim>4</dim>
				</port>
			</output>
		</layer>
		<layer id="93" name="374" type="Transpose" version="opset1">
			<input>
				<port id="0" precision="FP16">
					<dim>1</dim>
					<dim>384</dim>
					<dim>8</dim>
					<dim>64</dim>
				</port>
				<port id="1" precision="I64">
					<dim>4</dim>
				</port>
			</input>
			<output>
				<port id="2" precision="FP16">
					<dim>1</dim>
					<dim>8</dim>
					<dim>64</dim>
					<dim>384</dim>
				</port>
			</output>
		</layer>
		<layer id="94" name="377_copy/const26874" type="Const" version="opset1">
			<data element_type="f16" offset="65666176" shape="1, 8, 1, 1" size="16"/>
			<output>
				<port id="0" precision="FP16">
					<dim>1</dim>
					<dim>8</dim>
					<dim>1</dim>
					<dim>1</dim>
				</port>
			</output>
		</layer>
		<layer id="95" name="377_copy" type="Multiply" version="opset1">
			<data auto_broadcast="numpy"/>
			<input>
				<port id="0" precision="FP16">
					<dim>1</dim>
					<dim>8</dim>
					<dim>64</dim>
					<dim>384</dim>
				</port>
				<port id="1" precision="FP16">
					<dim>1</dim>
					<dim>8</dim>
					<dim>1</dim>
					<dim>1</dim>
				</port>
			</input>
			<output>
				<port id="2" names="374" precision="FP16">
					<dim>1</dim>
					<dim>8</dim>
					<dim>64</dim>
					<dim>384</dim>
				</port>
			</output>
		</layer>
		<layer id="96" name="375" type="MatMul" version="opset1">
			<data transpose_a="false" transpose_b="false"/>
			<input>
				<port id="0" precision="FP16">
					<dim>1</dim>
					<dim>8</dim>
					<dim>384</dim>
					<dim>64</dim>
				</port>
				<port id="1" precision="FP16">
					<dim>1</dim>
					<dim>8</dim>
					<dim>64</dim>
					<dim>384</dim>
				</port>
			</input>
			<output>
				<port id="2" names="377" precision="FP16">
					<dim>1</dim>
					<dim>8</dim>
					<dim>384</dim>
					<dim>384</dim>
				</port>
			</output>
		</layer>
		<layer id="97" name="278/Dims" type="Const" version="opset1">
			<data element_type="i64" offset="63557640" shape="1" size="8"/>
			<output>
				<port id="0" precision="I64">
					<dim>1</dim>
				</port>
			</output>
		</layer>
		<layer id="98" name="278/Unsqueeze" type="Unsqueeze" version="opset1">
			<input>
				<port id="0" precision="I32">
					<dim>1</dim>
					<dim>384</dim>
				</port>
				<port id="1" precision="I64">
					<dim>1</dim>
				</port>
			</input>
			<output>
				<port id="2" names="278" precision="I32">
					<dim>1</dim>
					<dim>1</dim>
					<dim>384</dim>
				</port>
			</output>
		</layer>
		<layer id="99" name="279/Dims" type="Const" version="opset1">
			<data element_type="i64" offset="65666192" shape="1" size="8"/>
			<output>
				<port id="0" precision="I64">
					<dim>1</dim>
				</port>
			</output>
		</layer>
		<layer id="100" name="279/Unsqueeze" type="Unsqueeze" version="opset1">
			<input>
				<port id="0" precision="I32">
					<dim>1</dim>
					<dim>1</dim>
					<dim>384</dim>
				</port>
				<port id="1" precision="I64">
					<dim>1</dim>
				</port>
			</input>
			<output>
				<port id="2" names="279" precision="I32">
					<dim>1</dim>
					<dim>1</dim>
					<dim>1</dim>
					<dim>384</dim>
				</port>
			</output>
		</layer>
		<layer id="101" name="280" type="Convert" version="opset1">
			<data destination_type="f16"/>
			<input>
				<port id="0" precision="I32">
					<dim>1</dim>
					<dim>1</dim>
					<dim>1</dim>
					<dim>384</dim>
				</port>
			</input>
			<output>
				<port id="1" precision="FP16">
					<dim>1</dim>
					<dim>1</dim>
					<dim>1</dim>
					<dim>384</dim>
				</port>
			</output>
		</layer>
		<layer id="102" name="data_mul_24660" type="Const" version="opset1">
			<data element_type="f16" offset="65666200" shape="1, 1, 1, 1" size="2"/>
			<output>
				<port id="0" precision="FP16">
					<dim>1</dim>
					<dim>1</dim>
					<dim>1</dim>
					<dim>1</dim>
				</port>
			</output>
		</layer>
		<layer id="103" name="282/neg_/Fused_Mul_" type="Multiply" version="opset1">
			<data auto_broadcast="numpy"/>
			<input>
				<port id="0" precision="FP16">
					<dim>1</dim>
					<dim>1</dim>
					<dim>1</dim>
					<dim>384</dim>
				</port>
				<port id="1" precision="FP16">
					<dim>1</dim>
					<dim>1</dim>
					<dim>1</dim>
					<dim>1</dim>
				</port>
			</input>
			<output>
				<port id="2" precision="FP16">
					<dim>1</dim>
					<dim>1</dim>
					<dim>1</dim>
					<dim>384</dim>
				</port>
			</output>
		</layer>
		<layer id="104" name="data_add_24662" type="Const" version="opset1">
			<data element_type="f16" offset="65666202" shape="1, 1, 1, 1" size="2"/>
			<output>
				<port id="0" precision="FP16">
					<dim>1</dim>
					<dim>1</dim>
					<dim>1</dim>
					<dim>1</dim>
				</port>
			</output>
		</layer>
		<layer id="105" name="282/Fused_Add_" type="Add" version="opset1">
			<data auto_broadcast="numpy"/>
			<input>
				<port id="0" precision="FP16">
					<dim>1</dim>
					<dim>1</dim>
					<dim>1</dim>
					<dim>384</dim>
				</port>
				<port id="1" precision="FP16">
					<dim>1</dim>
					<dim>1</dim>
					<dim>1</dim>
					<dim>1</dim>
				</port>
			</input>
			<output>
				<port id="2" names="284" precision="FP16">
					<dim>1</dim>
					<dim>1</dim>
					<dim>1</dim>
					<dim>384</dim>
				</port>
			</output>
		</layer>
		<layer id="106" name="378" type="Add" version="opset1">
			<data auto_broadcast="numpy"/>
			<input>
				<port id="0" precision="FP16">
					<dim>1</dim>
					<dim>8</dim>
					<dim>384</dim>
					<dim>384</dim>
				</port>
				<port id="1" precision="FP16">
					<dim>1</dim>
					<dim>1</dim>
					<dim>1</dim>
					<dim>384</dim>
				</port>
			</input>
			<output>
				<port id="2" names="378" precision="FP16">
					<dim>1</dim>
					<dim>8</dim>
					<dim>384</dim>
					<dim>384</dim>
				</port>
			</output>
		</layer>
		<layer id="107" name="379/FlattenONNX_/input_shape" type="ShapeOf" version="opset3">
			<data output_type="i64"/>
			<input>
				<port id="0" precision="FP16">
					<dim>1</dim>
					<dim>8</dim>
					<dim>384</dim>
					<dim>384</dim>
				</port>
			</input>
			<output>
				<port id="1" precision="I64">
					<dim>4</dim>
				</port>
			</output>
		</layer>
		<layer id="108" name="379/FlattenONNX_/input_shape/Indices" type="Const" version="opset1">
			<data element_type="i32" offset="65666204" shape="3" size="12"/>
			<output>
				<port id="0" precision="I32">
					<dim>3</dim>
				</port>
			</output>
		</layer>
		<layer id="109" name="379/FlattenONNX_/input_shape/Axis" type="Const" version="opset1">
			<data element_type="i64" offset="62509056" shape="" size="8"/>
			<output>
				<port id="0" precision="I64"/>
			</output>
		</layer>
		<layer id="110" name="379/FlattenONNX_/input_shape/Gather" type="Gather" version="opset7">
			<data batch_dims="0"/>
			<input>
				<port id="0" precision="I64">
					<dim>4</dim>
				</port>
				<port id="1" precision="I32">
					<dim>3</dim>
				</port>
				<port id="2" precision="I64"/>
			</input>
			<output>
				<port id="3" precision="I64">
					<dim>3</dim>
				</port>
			</output>
		</layer>
		<layer id="111" name="379/FlattenONNX_/first_dims/value" type="Const" version="opset1">
			<data element_type="i64" offset="62509056" shape="1" size="8"/>
			<output>
				<port id="0" precision="I64">
					<dim>1</dim>
				</port>
			</output>
		</layer>
		<layer id="112" name="379/FlattenONNX_/first_dims" type="ReduceProd" version="opset1">
			<data keep_dims="true"/>
			<input>
				<port id="0" precision="I64">
					<dim>3</dim>
				</port>
				<port id="1" precision="I64">
					<dim>1</dim>
				</port>
			</input>
			<output>
				<port id="2" precision="I64">
					<dim>1</dim>
				</port>
			</output>
		</layer>
		<layer id="113" name="379/FlattenONNX_/second_dims" type="Const" version="opset1">
			<data element_type="i64" offset="63561768" shape="1" size="8"/>
			<output>
				<port id="0" precision="I64">
					<dim>1</dim>
				</port>
			</output>
		</layer>
		<layer id="114" name="379/FlattenONNX_/first_dims/shapes_concat" type="Concat" version="opset1">
			<data axis="0"/>
			<input>
				<port id="0" precision="I64">
					<dim>1</dim>
				</port>
				<port id="1" precision="I64">
					<dim>1</dim>
				</port>
			</input>
			<output>
				<port id="2" precision="I64">
					<dim>2</dim>
				</port>
			</output>
		</layer>
		<layer id="115" name="379/FlattenONNX_/Reshape" type="Reshape" version="opset1">
			<data special_zero="true"/>
			<input>
				<port id="0" precision="FP16">
					<dim>1</dim>
					<dim>8</dim>
					<dim>384</dim>
					<dim>384</dim>
				</port>
				<port id="1" precision="I64">
					<dim>2</dim>
				</port>
			</input>
			<output>
				<port id="2" precision="FP16">
					<dim>3072</dim>
					<dim>384</dim>
				</port>
			</output>
		</layer>
		<layer id="116" name="379/Softmax_" type="SoftMax" version="opset1">
			<data axis="1"/>
			<input>
				<port id="0" precision="FP16">
					<dim>3072</dim>
					<dim>384</dim>
				</port>
			</input>
			<output>
				<port id="1" precision="FP16">
					<dim>3072</dim>
					<dim>384</dim>
				</port>
			</output>
		</layer>
		<layer id="117" name="379/ShapeOf_" type="ShapeOf" version="opset3">
			<data output_type="i64"/>
			<input>
				<port id="0" precision="FP16">
					<dim>1</dim>
					<dim>8</dim>
					<dim>384</dim>
					<dim>384</dim>
				</port>
			</input>
			<output>
				<port id="1" precision="I64">
					<dim>4</dim>
				</port>
			</output>
		</layer>
		<layer id="118" name="379" type="Reshape" version="opset1">
			<data special_zero="true"/>
			<input>
				<port id="0" precision="FP16">
					<dim>3072</dim>
					<dim>384</dim>
				</port>
				<port id="1" precision="I64">
					<dim>4</dim>
				</port>
			</input>
			<output>
				<port id="2" names="379" precision="FP16">
					<dim>1</dim>
					<dim>8</dim>
					<dim>384</dim>
					<dim>384</dim>
				</port>
			</output>
		</layer>
		<layer id="119" name="327" type="Const" version="opset1">
			<data element_type="f16" offset="65666216" shape="512, 512" size="524288"/>
			<output>
				<port id="0" names="327" precision="FP16">
					<dim>512</dim>
					<dim>512</dim>
				</port>
			</output>
		</layer>
		<layer id="120" name="328" type="MatMul" version="opset1">
			<data transpose_a="false" transpose_b="true"/>
			<input>
				<port id="0" precision="FP16">
					<dim>1</dim>
					<dim>384</dim>
					<dim>512</dim>
				</port>
				<port id="1" precision="FP16">
					<dim>512</dim>
					<dim>512</dim>
				</port>
			</input>
			<output>
				<port id="2" names="328" precision="FP16">
					<dim>1</dim>
					<dim>384</dim>
					<dim>512</dim>
				</port>
			</output>
		</layer>
		<layer id="121" name="bert.encoder.layer.0.attention.self.value.bias" type="Const" version="opset1">
			<data element_type="f16" offset="66190504" shape="1, 1, 512" size="1024"/>
			<output>
				<port id="0" names="bert.encoder.layer.0.attention.self.value.bias" precision="FP16">
					<dim>1</dim>
					<dim>1</dim>
					<dim>512</dim>
				</port>
			</output>
		</layer>
		<layer id="122" name="329" type="Add" version="opset1">
			<data auto_broadcast="numpy"/>
			<input>
				<port id="0" precision="FP16">
					<dim>1</dim>
					<dim>384</dim>
					<dim>512</dim>
				</port>
				<port id="1" precision="FP16">
					<dim>1</dim>
					<dim>1</dim>
					<dim>512</dim>
				</port>
			</input>
			<output>
				<port id="2" names="329" precision="FP16">
					<dim>1</dim>
					<dim>384</dim>
					<dim>512</dim>
				</port>
			</output>
		</layer>
		<layer id="123" name="360" type="ShapeOf" version="opset3">
			<data output_type="i64"/>
			<input>
				<port id="0" precision="FP16">
					<dim>1</dim>
					<dim>384</dim>
					<dim>512</dim>
				</port>
			</input>
			<output>
				<port id="1" names="360" precision="I64">
					<dim>3</dim>
				</port>
			</output>
		</layer>
		<layer id="124" name="359" type="Const" version="opset1">
			<data element_type="i32" offset="63557668" shape="" size="4"/>
			<output>
				<port id="0" names="359" precision="I32"/>
			</output>
		</layer>
		<layer id="125" name="361/axis" type="Const" version="opset1">
			<data element_type="i64" offset="62509056" shape="" size="8"/>
			<output>
				<port id="0" precision="I64"/>
			</output>
		</layer>
		<layer id="126" name="3612964" type="Gather" version="opset7">
			<data batch_dims="0"/>
			<input>
				<port id="0" precision="I64">
					<dim>3</dim>
				</port>
				<port id="1" precision="I32"/>
				<port id="2" precision="I64"/>
			</input>
			<output>
				<port id="3" names="361" precision="I64"/>
			</output>
		</layer>
		<layer id="127" name="367/Dims" type="Const" version="opset1">
			<data element_type="i64" offset="62509056" shape="1" size="8"/>
			<output>
				<port id="0" precision="I64">
					<dim>1</dim>
				</port>
			</output>
		</layer>
		<layer id="128" name="367/Unsqueeze" type="Unsqueeze" version="opset1">
			<input>
				<port id="0" precision="I64"/>
				<port id="1" precision="I64">
					<dim>1</dim>
				</port>
			</input>
			<output>
				<port id="2" names="367" precision="I64">
					<dim>1</dim>
				</port>
			</output>
		</layer>
		<layer id="129" name="363" type="ShapeOf" version="opset3">
			<data output_type="i64"/>
			<input>
				<port id="0" precision="FP16">
					<dim>1</dim>
					<dim>384</dim>
					<dim>512</dim>
				</port>
			</input>
			<output>
				<port id="1" names="363" precision="I64">
					<dim>3</dim>
				</port>
			</output>
		</layer>
		<layer id="130" name="362" type="Const" version="opset1">
			<data element_type="i32" offset="63557648" shape="" size="4"/>
			<output>
				<port id="0" names="362" precision="I32"/>
			</output>
		</layer>
		<layer id="131" name="364/axis" type="Const" version="opset1">
			<data element_type="i64" offset="62509056" shape="" size="8"/>
			<output>
				<port id="0" precision="I64"/>
			</output>
		</layer>
		<layer id="132" name="3643018" type="Gather" version="opset7">
			<data batch_dims="0"/>
			<input>
				<port id="0" precision="I64">
					<dim>3</dim>
				</port>
				<port id="1" precision="I32"/>
				<port id="2" precision="I64"/>
			</input>
			<output>
				<port id="3" names="364" precision="I64"/>
			</output>
		</layer>
		<layer id="133" name="368/Dims" type="Const" version="opset1">
			<data element_type="i64" offset="62509056" shape="1" size="8"/>
			<output>
				<port id="0" precision="I64">
					<dim>1</dim>
				</port>
			</output>
		</layer>
		<layer id="134" name="368/Unsqueeze" type="Unsqueeze" version="opset1">
			<input>
				<port id="0" precision="I64"/>
				<port id="1" precision="I64">
					<dim>1</dim>
				</port>
			</input>
			<output>
				<port id="2" names="368" precision="I64">
					<dim>1</dim>
				</port>
			</output>
		</layer>
		<layer id="135" name="369/Unsqueeze" type="Const" version="opset1">
			<data element_type="i64" offset="65140784" shape="1" size="8"/>
			<output>
				<port id="0" names="369" precision="I64">
					<dim>1</dim>
				</port>
			</output>
		</layer>
		<layer id="136" name="370/Unsqueeze" type="Const" version="opset1">
			<data element_type="i64" offset="65140792" shape="1" size="8"/>
			<output>
				<port id="0" names="370" precision="I64">
					<dim>1</dim>
				</port>
			</output>
		</layer>
		<layer id="137" name="371" type="Concat" version="opset1">
			<data axis="0"/>
			<input>
				<port id="0" precision="I64">
					<dim>1</dim>
				</port>
				<port id="1" precision="I64">
					<dim>1</dim>
				</port>
				<port id="2" precision="I64">
					<dim>1</dim>
				</port>
				<port id="3" precision="I64">
					<dim>1</dim>
				</port>
			</input>
			<output>
				<port id="4" names="371" precision="I64">
					<dim>4</dim>
				</port>
			</output>
		</layer>
		<layer id="138" name="372" type="Reshape" version="opset1">
			<data special_zero="true"/>
			<input>
				<port id="0" precision="FP16">
					<dim>1</dim>
					<dim>384</dim>
					<dim>512</dim>
				</port>
				<port id="1" precision="I64">
					<dim>4</dim>
				</port>
			</input>
			<output>
				<port id="2" names="372" precision="FP16">
					<dim>1</dim>
					<dim>384</dim>
					<dim>8</dim>
					<dim>64</dim>
				</port>
			</output>
		</layer>
		<layer id="139" name="2113" type="Const" version="opset1">
			<data element_type="i64" offset="65140800" shape="4" size="32"/>
			<output>
				<port id="0" precision="I64">
					<dim>4</dim>
				</port>
			</output>
		</layer>
		<layer id="140" name="373" type="Transpose" version="opset1">
			<input>
				<port id="0" precision="FP16">
					<dim>1</dim>
					<dim>384</dim>
					<dim>8</dim>
					<dim>64</dim>
				</port>
				<port id="1" precision="I64">
					<dim>4</dim>
				</port>
			</input>
			<output>
				<port id="2" names="373" precision="FP16">
					<dim>1</dim>
					<dim>8</dim>
					<dim>384</dim>
					<dim>64</dim>
				</port>
			</output>
		</layer>
		<layer id="141" name="380" type="MatMul" version="opset1">
			<data transpose_a="false" transpose_b="false"/>
			<input>
				<port id="0" precision="FP16">
					<dim>1</dim>
					<dim>8</dim>
					<dim>384</dim>
					<dim>384</dim>
				</port>
				<port id="1" precision="FP16">
					<dim>1</dim>
					<dim>8</dim>
					<dim>384</dim>
					<dim>64</dim>
				</port>
			</input>
			<output>
				<port id="2" names="380" precision="FP16">
					<dim>1</dim>
					<dim>8</dim>
					<dim>384</dim>
					<dim>64</dim>
				</port>
			</output>
		</layer>
		<layer id="142" name="2011" type="Const" version="opset1">
			<data element_type="i64" offset="65140800" shape="4" size="32"/>
			<output>
				<port id="0" precision="I64">
					<dim>4</dim>
				</port>
			</output>
		</layer>
		<layer id="143" name="381" type="Transpose" version="opset1">
			<input>
				<port id="0" precision="FP16">
					<dim>1</dim>
					<dim>8</dim>
					<dim>384</dim>
					<dim>64</dim>
				</port>
				<port id="1" precision="I64">
					<dim>4</dim>
				</port>
			</input>
			<output>
				<port id="2" names="381" precision="FP16">
					<dim>1</dim>
					<dim>384</dim>
					<dim>8</dim>
					<dim>64</dim>
				</port>
			</output>
		</layer>
		<layer id="144" name="383" type="ShapeOf" version="opset3">
			<data output_type="i64"/>
			<input>
				<port id="0" precision="FP16">
					<dim>1</dim>
					<dim>384</dim>
					<dim>8</dim>
					<dim>64</dim>
				</port>
			</input>
			<output>
				<port id="1" names="383" precision="I64">
					<dim>4</dim>
				</port>
			</output>
		</layer>
		<layer id="145" name="382" type="Const" version="opset1">
			<data element_type="i32" offset="63557668" shape="" size="4"/>
			<output>
				<port id="0" names="382" precision="I32"/>
			</output>
		</layer>
		<layer id="146" name="384/axis" type="Const" version="opset1">
			<data element_type="i64" offset="62509056" shape="" size="8"/>
			<output>
				<port id="0" precision="I64"/>
			</output>
		</layer>
		<layer id="147" name="3843032" type="Gather" version="opset7">
			<data batch_dims="0"/>
			<input>
				<port id="0" precision="I64">
					<dim>4</dim>
				</port>
				<port id="1" precision="I32"/>
				<port id="2" precision="I64"/>
			</input>
			<output>
				<port id="3" names="384" precision="I64"/>
			</output>
		</layer>
		<layer id="148" name="389/Dims" type="Const" version="opset1">
			<data element_type="i64" offset="62509056" shape="1" size="8"/>
			<output>
				<port id="0" precision="I64">
					<dim>1</dim>
				</port>
			</output>
		</layer>
		<layer id="149" name="389/Unsqueeze" type="Unsqueeze" version="opset1">
			<input>
				<port id="0" precision="I64"/>
				<port id="1" precision="I64">
					<dim>1</dim>
				</port>
			</input>
			<output>
				<port id="2" names="389" precision="I64">
					<dim>1</dim>
				</port>
			</output>
		</layer>
		<layer id="150" name="386" type="ShapeOf" version="opset3">
			<data output_type="i64"/>
			<input>
				<port id="0" precision="FP16">
					<dim>1</dim>
					<dim>384</dim>
					<dim>8</dim>
					<dim>64</dim>
				</port>
			</input>
			<output>
				<port id="1" names="386" precision="I64">
					<dim>4</dim>
				</port>
			</output>
		</layer>
		<layer id="151" name="385" type="Const" version="opset1">
			<data element_type="i32" offset="63557648" shape="" size="4"/>
			<output>
				<port id="0" names="385" precision="I32"/>
			</output>
		</layer>
		<layer id="152" name="387/axis" type="Const" version="opset1">
			<data element_type="i64" offset="62509056" shape="" size="8"/>
			<output>
				<port id="0" precision="I64"/>
			</output>
		</layer>
		<layer id="153" name="3873034" type="Gather" version="opset7">
			<data batch_dims="0"/>
			<input>
				<port id="0" precision="I64">
					<dim>4</dim>
				</port>
				<port id="1" precision="I32"/>
				<port id="2" precision="I64"/>
			</input>
			<output>
				<port id="3" names="387" precision="I64"/>
			</output>
		</layer>
		<layer id="154" name="390/Dims" type="Const" version="opset1">
			<data element_type="i64" offset="62509056" shape="1" size="8"/>
			<output>
				<port id="0" precision="I64">
					<dim>1</dim>
				</port>
			</output>
		</layer>
		<layer id="155" name="390/Unsqueeze" type="Unsqueeze" version="opset1">
			<input>
				<port id="0" precision="I64"/>
				<port id="1" precision="I64">
					<dim>1</dim>
				</port>
			</input>
			<output>
				<port id="2" names="390" precision="I64">
					<dim>1</dim>
				</port>
			</output>
		</layer>
		<layer id="156" name="391/Unsqueeze" type="Const" version="opset1">
			<data element_type="i64" offset="66191528" shape="1" size="8"/>
			<output>
				<port id="0" names="391" precision="I64">
					<dim>1</dim>
				</port>
			</output>
		</layer>
		<layer id="157" name="392" type="Concat" version="opset1">
			<data axis="0"/>
			<input>
				<port id="0" precision="I64">
					<dim>1</dim>
				</port>
				<port id="1" precision="I64">
					<dim>1</dim>
				</port>
				<port id="2" precision="I64">
					<dim>1</dim>
				</port>
			</input>
			<output>
				<port id="3" names="392" precision="I64">
					<dim>3</dim>
				</port>
			</output>
		</layer>
		<layer id="158" name="393" type="Reshape" version="opset1">
			<data special_zero="true"/>
			<input>
				<port id="0" precision="FP16">
					<dim>1</dim>
					<dim>384</dim>
					<dim>8</dim>
					<dim>64</dim>
				</port>
				<port id="1" precision="I64">
					<dim>3</dim>
				</port>
			</input>
			<output>
				<port id="2" names="393" precision="FP16">
					<dim>1</dim>
					<dim>384</dim>
					<dim>512</dim>
				</port>
			</output>
		</layer>
		<layer id="159" name="394" type="Const" version="opset1">
			<data element_type="f16" offset="66191536" shape="512, 512" size="524288"/>
			<output>
				<port id="0" names="394" precision="FP16">
					<dim>512</dim>
					<dim>512</dim>
				</port>
			</output>
		</layer>
		<layer id="160" name="395" type="MatMul" version="opset1">
			<data transpose_a="false" transpose_b="true"/>
			<input>
				<port id="0" precision="FP16">
					<dim>1</dim>
					<dim>384</dim>
					<dim>512</dim>
				</port>
				<port id="1" precision="FP16">
					<dim>512</dim>
					<dim>512</dim>
				</port>
			</input>
			<output>
				<port id="2" names="395" precision="FP16">
					<dim>1</dim>
					<dim>384</dim>
					<dim>512</dim>
				</port>
			</output>
		</layer>
		<layer id="161" name="bert.encoder.layer.0.attention.output.dense.bias" type="Const" version="opset1">
			<data element_type="f16" offset="66715824" shape="1, 1, 512" size="1024"/>
			<output>
				<port id="0" names="bert.encoder.layer.0.attention.output.dense.bias" precision="FP16">
					<dim>1</dim>
					<dim>1</dim>
					<dim>512</dim>
				</port>
			</output>
		</layer>
		<layer id="162" name="396" type="Add" version="opset1">
			<data auto_broadcast="numpy"/>
			<input>
				<port id="0" precision="FP16">
					<dim>1</dim>
					<dim>384</dim>
					<dim>512</dim>
				</port>
				<port id="1" precision="FP16">
					<dim>1</dim>
					<dim>1</dim>
					<dim>512</dim>
				</port>
			</input>
			<output>
				<port id="2" names="396" precision="FP16">
					<dim>1</dim>
					<dim>384</dim>
					<dim>512</dim>
				</port>
			</output>
		</layer>
		<layer id="163" name="397" type="Add" version="opset1">
			<data auto_broadcast="numpy"/>
			<input>
				<port id="0" precision="FP16">
					<dim>1</dim>
					<dim>384</dim>
					<dim>512</dim>
				</port>
				<port id="1" precision="FP16">
					<dim>1</dim>
					<dim>384</dim>
					<dim>512</dim>
				</port>
			</input>
			<output>
				<port id="2" names="397" precision="FP16">
					<dim>1</dim>
					<dim>384</dim>
					<dim>512</dim>
				</port>
			</output>
		</layer>
		<layer id="164" name="2686_input_port_1/value" type="Const" version="opset1">
			<data element_type="i64" offset="63561768" shape="1" size="8"/>
			<output>
				<port id="0" precision="I64">
					<dim>1</dim>
				</port>
			</output>
		</layer>
		<layer id="165" name="406" type="MVN" version="opset6">
			<data eps="9.999999960041972e-13" eps_mode="INSIDE_SQRT" normalize_variance="true"/>
			<input>
				<port id="0" precision="FP16">
					<dim>1</dim>
					<dim>384</dim>
					<dim>512</dim>
				</port>
				<port id="1" precision="I64">
					<dim>1</dim>
				</port>
			</input>
			<output>
				<port id="2" names="406" precision="FP16">
					<dim>1</dim>
					<dim>384</dim>
					<dim>512</dim>
				</port>
			</output>
		</layer>
		<layer id="166" name="bert.encoder.layer.0.attention.output.LayerNorm.weight" type="Const" version="opset1">
			<data element_type="f16" offset="66716848" shape="1, 1, 512" size="1024"/>
			<output>
				<port id="0" names="bert.encoder.layer.0.attention.output.LayerNorm.weight" precision="FP16">
					<dim>1</dim>
					<dim>1</dim>
					<dim>512</dim>
				</port>
			</output>
		</layer>
		<layer id="167" name="407" type="Multiply" version="opset1">
			<data auto_broadcast="numpy"/>
			<input>
				<port id="0" precision="FP16">
					<dim>1</dim>
					<dim>384</dim>
					<dim>512</dim>
				</port>
				<port id="1" precision="FP16">
					<dim>1</dim>
					<dim>1</dim>
					<dim>512</dim>
				</port>
			</input>
			<output>
				<port id="2" names="407" precision="FP16">
					<dim>1</dim>
					<dim>384</dim>
					<dim>512</dim>
				</port>
			</output>
		</layer>
		<layer id="168" name="bert.encoder.layer.0.attention.output.LayerNorm.bias" type="Const" version="opset1">
			<data element_type="f16" offset="66717872" shape="1, 1, 512" size="1024"/>
			<output>
				<port id="0" names="bert.encoder.layer.0.attention.output.LayerNorm.bias" precision="FP16">
					<dim>1</dim>
					<dim>1</dim>
					<dim>512</dim>
				</port>
			</output>
		</layer>
		<layer id="169" name="408" type="Add" version="opset1">
			<data auto_broadcast="numpy"/>
			<input>
				<port id="0" precision="FP16">
					<dim>1</dim>
					<dim>384</dim>
					<dim>512</dim>
				</port>
				<port id="1" precision="FP16">
					<dim>1</dim>
					<dim>1</dim>
					<dim>512</dim>
				</port>
			</input>
			<output>
				<port id="2" names="408" precision="FP16">
					<dim>1</dim>
					<dim>384</dim>
					<dim>512</dim>
				</port>
			</output>
		</layer>
		<layer id="170" name="409" type="Const" version="opset1">
			<data element_type="f16" offset="66718896" shape="512, 512" size="524288"/>
			<output>
				<port id="0" names="409" precision="FP16">
					<dim>512</dim>
					<dim>512</dim>
				</port>
			</output>
		</layer>
		<layer id="171" name="410" type="MatMul" version="opset1">
			<data transpose_a="false" transpose_b="true"/>
			<input>
				<port id="0" precision="FP16">
					<dim>1</dim>
					<dim>384</dim>
					<dim>512</dim>
				</port>
				<port id="1" precision="FP16">
					<dim>512</dim>
					<dim>512</dim>
				</port>
			</input>
			<output>
				<port id="2" names="410" precision="FP16">
					<dim>1</dim>
					<dim>384</dim>
					<dim>512</dim>
				</port>
			</output>
		</layer>
		<layer id="172" name="bert.encoder.layer.0.intermediate.denses.0.bias" type="Const" version="opset1">
			<data element_type="f16" offset="67243184" shape="1, 1, 512" size="1024"/>
			<output>
				<port id="0" names="bert.encoder.layer.0.intermediate.denses.0.bias" precision="FP16">
					<dim>1</dim>
					<dim>1</dim>
					<dim>512</dim>
				</port>
			</output>
		</layer>
		<layer id="173" name="411" type="Add" version="opset1">
			<data auto_broadcast="numpy"/>
			<input>
				<port id="0" precision="FP16">
					<dim>1</dim>
					<dim>384</dim>
					<dim>512</dim>
				</port>
				<port id="1" precision="FP16">
					<dim>1</dim>
					<dim>1</dim>
					<dim>512</dim>
				</port>
			</input>
			<output>
				<port id="2" names="411" precision="FP16">
					<dim>1</dim>
					<dim>384</dim>
					<dim>512</dim>
				</port>
			</output>
		</layer>
		<layer id="174" name="419" type="Gelu" version="opset7">
			<data approximation_mode="ERF"/>
			<input>
				<port id="0" precision="FP16">
					<dim>1</dim>
					<dim>384</dim>
					<dim>512</dim>
				</port>
			</input>
			<output>
				<port id="1" names="419" precision="FP16">
					<dim>1</dim>
					<dim>384</dim>
					<dim>512</dim>
				</port>
			</output>
		</layer>
		<layer id="175" name="420" type="Const" version="opset1">
			<data element_type="f16" offset="67244208" shape="512, 512" size="524288"/>
			<output>
				<port id="0" names="420" precision="FP16">
					<dim>512</dim>
					<dim>512</dim>
				</port>
			</output>
		</layer>
		<layer id="176" name="421" type="MatMul" version="opset1">
			<data transpose_a="false" transpose_b="true"/>
			<input>
				<port id="0" precision="FP16">
					<dim>1</dim>
					<dim>384</dim>
					<dim>512</dim>
				</port>
				<port id="1" precision="FP16">
					<dim>512</dim>
					<dim>512</dim>
				</port>
			</input>
			<output>
				<port id="2" names="421" precision="FP16">
					<dim>1</dim>
					<dim>384</dim>
					<dim>512</dim>
				</port>
			</output>
		</layer>
		<layer id="177" name="bert.encoder.layer.0.intermediate.denses.1.bias" type="Const" version="opset1">
			<data element_type="f16" offset="67768496" shape="1, 1, 512" size="1024"/>
			<output>
				<port id="0" names="bert.encoder.layer.0.intermediate.denses.1.bias" precision="FP16">
					<dim>1</dim>
					<dim>1</dim>
					<dim>512</dim>
				</port>
			</output>
		</layer>
		<layer id="178" name="422" type="Add" version="opset1">
			<data auto_broadcast="numpy"/>
			<input>
				<port id="0" precision="FP16">
					<dim>1</dim>
					<dim>384</dim>
					<dim>512</dim>
				</port>
				<port id="1" precision="FP16">
					<dim>1</dim>
					<dim>1</dim>
					<dim>512</dim>
				</port>
			</input>
			<output>
				<port id="2" names="422" precision="FP16">
					<dim>1</dim>
					<dim>384</dim>
					<dim>512</dim>
				</port>
			</output>
		</layer>
		<layer id="179" name="430" type="Gelu" version="opset7">
			<data approximation_mode="ERF"/>
			<input>
				<port id="0" precision="FP16">
					<dim>1</dim>
					<dim>384</dim>
					<dim>512</dim>
				</port>
			</input>
			<output>
				<port id="1" names="430" precision="FP16">
					<dim>1</dim>
					<dim>384</dim>
					<dim>512</dim>
				</port>
			</output>
		</layer>
		<layer id="180" name="431" type="Const" version="opset1">
			<data element_type="f16" offset="67769520" shape="512, 512" size="524288"/>
			<output>
				<port id="0" names="431" precision="FP16">
					<dim>512</dim>
					<dim>512</dim>
				</port>
			</output>
		</layer>
		<layer id="181" name="432" type="MatMul" version="opset1">
			<data transpose_a="false" transpose_b="true"/>
			<input>
				<port id="0" precision="FP16">
					<dim>1</dim>
					<dim>384</dim>
					<dim>512</dim>
				</port>
				<port id="1" precision="FP16">
					<dim>512</dim>
					<dim>512</dim>
				</port>
			</input>
			<output>
				<port id="2" names="432" precision="FP16">
					<dim>1</dim>
					<dim>384</dim>
					<dim>512</dim>
				</port>
			</output>
		</layer>
		<layer id="182" name="bert.encoder.layer.0.intermediate.denses.2.bias" type="Const" version="opset1">
			<data element_type="f16" offset="68293808" shape="1, 1, 512" size="1024"/>
			<output>
				<port id="0" names="bert.encoder.layer.0.intermediate.denses.2.bias" precision="FP16">
					<dim>1</dim>
					<dim>1</dim>
					<dim>512</dim>
				</port>
			</output>
		</layer>
		<layer id="183" name="433" type="Add" version="opset1">
			<data auto_broadcast="numpy"/>
			<input>
				<port id="0" precision="FP16">
					<dim>1</dim>
					<dim>384</dim>
					<dim>512</dim>
				</port>
				<port id="1" precision="FP16">
					<dim>1</dim>
					<dim>1</dim>
					<dim>512</dim>
				</port>
			</input>
			<output>
				<port id="2" names="433" precision="FP16">
					<dim>1</dim>
					<dim>384</dim>
					<dim>512</dim>
				</port>
			</output>
		</layer>
		<layer id="184" name="441" type="Gelu" version="opset7">
			<data approximation_mode="ERF"/>
			<input>
				<port id="0" precision="FP16">
					<dim>1</dim>
					<dim>384</dim>
					<dim>512</dim>
				</port>
			</input>
			<output>
				<port id="1" names="441" precision="FP16">
					<dim>1</dim>
					<dim>384</dim>
					<dim>512</dim>
				</port>
			</output>
		</layer>
		<layer id="185" name="442" type="Const" version="opset1">
			<data element_type="f16" offset="68294832" shape="512, 512" size="524288"/>
			<output>
				<port id="0" names="442" precision="FP16">
					<dim>512</dim>
					<dim>512</dim>
				</port>
			</output>
		</layer>
		<layer id="186" name="443" type="MatMul" version="opset1">
			<data transpose_a="false" transpose_b="true"/>
			<input>
				<port id="0" precision="FP16">
					<dim>1</dim>
					<dim>384</dim>
					<dim>512</dim>
				</port>
				<port id="1" precision="FP16">
					<dim>512</dim>
					<dim>512</dim>
				</port>
			</input>
			<output>
				<port id="2" names="443" precision="FP16">
					<dim>1</dim>
					<dim>384</dim>
					<dim>512</dim>
				</port>
			</output>
		</layer>
		<layer id="187" name="bert.encoder.layer.0.output.dense.bias" type="Const" version="opset1">
			<data element_type="f16" offset="68819120" shape="1, 1, 512" size="1024"/>
			<output>
				<port id="0" names="bert.encoder.layer.0.output.dense.bias" precision="FP16">
					<dim>1</dim>
					<dim>1</dim>
					<dim>512</dim>
				</port>
			</output>
		</layer>
		<layer id="188" name="444" type="Add" version="opset1">
			<data auto_broadcast="numpy"/>
			<input>
				<port id="0" precision="FP16">
					<dim>1</dim>
					<dim>384</dim>
					<dim>512</dim>
				</port>
				<port id="1" precision="FP16">
					<dim>1</dim>
					<dim>1</dim>
					<dim>512</dim>
				</port>
			</input>
			<output>
				<port id="2" names="444" precision="FP16">
					<dim>1</dim>
					<dim>384</dim>
					<dim>512</dim>
				</port>
			</output>
		</layer>
		<layer id="189" name="445" type="Add" version="opset1">
			<data auto_broadcast="numpy"/>
			<input>
				<port id="0" precision="FP16">
					<dim>1</dim>
					<dim>384</dim>
					<dim>512</dim>
				</port>
				<port id="1" precision="FP16">
					<dim>1</dim>
					<dim>384</dim>
					<dim>512</dim>
				</port>
			</input>
			<output>
				<port id="2" names="445" precision="FP16">
					<dim>1</dim>
					<dim>384</dim>
					<dim>512</dim>
				</port>
			</output>
		</layer>
		<layer id="190" name="2656_input_port_1/value" type="Const" version="opset1">
			<data element_type="i64" offset="63561768" shape="1" size="8"/>
			<output>
				<port id="0" precision="I64">
					<dim>1</dim>
				</port>
			</output>
		</layer>
		<layer id="191" name="454" type="MVN" version="opset6">
			<data eps="9.999999960041972e-13" eps_mode="INSIDE_SQRT" normalize_variance="true"/>
			<input>
				<port id="0" precision="FP16">
					<dim>1</dim>
					<dim>384</dim>
					<dim>512</dim>
				</port>
				<port id="1" precision="I64">
					<dim>1</dim>
				</port>
			</input>
			<output>
				<port id="2" names="454" precision="FP16">
					<dim>1</dim>
					<dim>384</dim>
					<dim>512</dim>
				</port>
			</output>
		</layer>
		<layer id="192" name="bert.encoder.layer.0.output.LayerNorm.weight" type="Const" version="opset1">
			<data element_type="f16" offset="68820144" shape="1, 1, 512" size="1024"/>
			<output>
				<port id="0" names="bert.encoder.layer.0.output.LayerNorm.weight" precision="FP16">
					<dim>1</dim>
					<dim>1</dim>
					<dim>512</dim>
				</port>
			</output>
		</layer>
		<layer id="193" name="455" type="Multiply" version="opset1">
			<data auto_broadcast="numpy"/>
			<input>
				<port id="0" precision="FP16">
					<dim>1</dim>
					<dim>384</dim>
					<dim>512</dim>
				</port>
				<port id="1" precision="FP16">
					<dim>1</dim>
					<dim>1</dim>
					<dim>512</dim>
				</port>
			</input>
			<output>
				<port id="2" names="455" precision="FP16">
					<dim>1</dim>
					<dim>384</dim>
					<dim>512</dim>
				</port>
			</output>
		</layer>
		<layer id="194" name="bert.encoder.layer.0.output.LayerNorm.bias" type="Const" version="opset1">
			<data element_type="f16" offset="68821168" shape="1, 1, 512" size="1024"/>
			<output>
				<port id="0" names="bert.encoder.layer.0.output.LayerNorm.bias" precision="FP16">
					<dim>1</dim>
					<dim>1</dim>
					<dim>512</dim>
				</port>
			</output>
		</layer>
		<layer id="195" name="456" type="Add" version="opset1">
			<data auto_broadcast="numpy"/>
			<input>
				<port id="0" precision="FP16">
					<dim>1</dim>
					<dim>384</dim>
					<dim>512</dim>
				</port>
				<port id="1" precision="FP16">
					<dim>1</dim>
					<dim>1</dim>
					<dim>512</dim>
				</port>
			</input>
			<output>
				<port id="2" names="456" precision="FP16">
					<dim>1</dim>
					<dim>384</dim>
					<dim>512</dim>
				</port>
			</output>
		</layer>
		<layer id="196" name="457" type="Const" version="opset1">
			<data element_type="f16" offset="68822192" shape="512, 512" size="524288"/>
			<output>
				<port id="0" names="457" precision="FP16">
					<dim>512</dim>
					<dim>512</dim>
				</port>
			</output>
		</layer>
		<layer id="197" name="458" type="MatMul" version="opset1">
			<data transpose_a="false" transpose_b="true"/>
			<input>
				<port id="0" precision="FP16">
					<dim>1</dim>
					<dim>384</dim>
					<dim>512</dim>
				</port>
				<port id="1" precision="FP16">
					<dim>512</dim>
					<dim>512</dim>
				</port>
			</input>
			<output>
				<port id="2" names="458" precision="FP16">
					<dim>1</dim>
					<dim>384</dim>
					<dim>512</dim>
				</port>
			</output>
		</layer>
		<layer id="198" name="bert.encoder.layer.1.attention.self.query.bias" type="Const" version="opset1">
			<data element_type="f16" offset="69346480" shape="1, 1, 512" size="1024"/>
			<output>
				<port id="0" names="bert.encoder.layer.1.attention.self.query.bias" precision="FP16">
					<dim>1</dim>
					<dim>1</dim>
					<dim>512</dim>
				</port>
			</output>
		</layer>
		<layer id="199" name="459" type="Add" version="opset1">
			<data auto_broadcast="numpy"/>
			<input>
				<port id="0" precision="FP16">
					<dim>1</dim>
					<dim>384</dim>
					<dim>512</dim>
				</port>
				<port id="1" precision="FP16">
					<dim>1</dim>
					<dim>1</dim>
					<dim>512</dim>
				</port>
			</input>
			<output>
				<port id="2" names="459" precision="FP16">
					<dim>1</dim>
					<dim>384</dim>
					<dim>512</dim>
				</port>
			</output>
		</layer>
		<layer id="200" name="467" type="ShapeOf" version="opset3">
			<data output_type="i64"/>
			<input>
				<port id="0" precision="FP16">
					<dim>1</dim>
					<dim>384</dim>
					<dim>512</dim>
				</port>
			</input>
			<output>
				<port id="1" names="467" precision="I64">
					<dim>3</dim>
				</port>
			</output>
		</layer>
		<layer id="201" name="466" type="Const" version="opset1">
			<data element_type="i32" offset="63557668" shape="" size="4"/>
			<output>
				<port id="0" names="466" precision="I32"/>
			</output>
		</layer>
		<layer id="202" name="468/axis" type="Const" version="opset1">
			<data element_type="i64" offset="62509056" shape="" size="8"/>
			<output>
				<port id="0" precision="I64"/>
			</output>
		</layer>
		<layer id="203" name="4682938" type="Gather" version="opset7">
			<data batch_dims="0"/>
			<input>
				<port id="0" precision="I64">
					<dim>3</dim>
				</port>
				<port id="1" precision="I32"/>
				<port id="2" precision="I64"/>
			</input>
			<output>
				<port id="3" names="468" precision="I64"/>
			</output>
		</layer>
		<layer id="204" name="474/Dims" type="Const" version="opset1">
			<data element_type="i64" offset="62509056" shape="1" size="8"/>
			<output>
				<port id="0" precision="I64">
					<dim>1</dim>
				</port>
			</output>
		</layer>
		<layer id="205" name="474/Unsqueeze" type="Unsqueeze" version="opset1">
			<input>
				<port id="0" precision="I64"/>
				<port id="1" precision="I64">
					<dim>1</dim>
				</port>
			</input>
			<output>
				<port id="2" names="474" precision="I64">
					<dim>1</dim>
				</port>
			</output>
		</layer>
		<layer id="206" name="470" type="ShapeOf" version="opset3">
			<data output_type="i64"/>
			<input>
				<port id="0" precision="FP16">
					<dim>1</dim>
					<dim>384</dim>
					<dim>512</dim>
				</port>
			</input>
			<output>
				<port id="1" names="470" precision="I64">
					<dim>3</dim>
				</port>
			</output>
		</layer>
		<layer id="207" name="469" type="Const" version="opset1">
			<data element_type="i32" offset="63557648" shape="" size="4"/>
			<output>
				<port id="0" names="469" precision="I32"/>
			</output>
		</layer>
		<layer id="208" name="471/axis" type="Const" version="opset1">
			<data element_type="i64" offset="62509056" shape="" size="8"/>
			<output>
				<port id="0" precision="I64"/>
			</output>
		</layer>
		<layer id="209" name="4712994" type="Gather" version="opset7">
			<data batch_dims="0"/>
			<input>
				<port id="0" precision="I64">
					<dim>3</dim>
				</port>
				<port id="1" precision="I32"/>
				<port id="2" precision="I64"/>
			</input>
			<output>
				<port id="3" names="471" precision="I64"/>
			</output>
		</layer>
		<layer id="210" name="475/Dims" type="Const" version="opset1">
			<data element_type="i64" offset="62509056" shape="1" size="8"/>
			<output>
				<port id="0" precision="I64">
					<dim>1</dim>
				</port>
			</output>
		</layer>
		<layer id="211" name="475/Unsqueeze" type="Unsqueeze" version="opset1">
			<input>
				<port id="0" precision="I64"/>
				<port id="1" precision="I64">
					<dim>1</dim>
				</port>
			</input>
			<output>
				<port id="2" names="475" precision="I64">
					<dim>1</dim>
				</port>
			</output>
		</layer>
		<layer id="212" name="476/Unsqueeze" type="Const" version="opset1">
			<data element_type="i64" offset="65140784" shape="1" size="8"/>
			<output>
				<port id="0" names="476" precision="I64">
					<dim>1</dim>
				</port>
			</output>
		</layer>
		<layer id="213" name="477/Unsqueeze" type="Const" version="opset1">
			<data element_type="i64" offset="65140792" shape="1" size="8"/>
			<output>
				<port id="0" names="477" precision="I64">
					<dim>1</dim>
				</port>
			</output>
		</layer>
		<layer id="214" name="478" type="Concat" version="opset1">
			<data axis="0"/>
			<input>
				<port id="0" precision="I64">
					<dim>1</dim>
				</port>
				<port id="1" precision="I64">
					<dim>1</dim>
				</port>
				<port id="2" precision="I64">
					<dim>1</dim>
				</port>
				<port id="3" precision="I64">
					<dim>1</dim>
				</port>
			</input>
			<output>
				<port id="4" names="478" precision="I64">
					<dim>4</dim>
				</port>
			</output>
		</layer>
		<layer id="215" name="479" type="Reshape" version="opset1">
			<data special_zero="true"/>
			<input>
				<port id="0" precision="FP16">
					<dim>1</dim>
					<dim>384</dim>
					<dim>512</dim>
				</port>
				<port id="1" precision="I64">
					<dim>4</dim>
				</port>
			</input>
			<output>
				<port id="2" names="479" precision="FP16">
					<dim>1</dim>
					<dim>384</dim>
					<dim>8</dim>
					<dim>64</dim>
				</port>
			</output>
		</layer>
		<layer id="216" name="1989" type="Const" version="opset1">
			<data element_type="i64" offset="65140800" shape="4" size="32"/>
			<output>
				<port id="0" precision="I64">
					<dim>4</dim>
				</port>
			</output>
		</layer>
		<layer id="217" name="480" type="Transpose" version="opset1">
			<input>
				<port id="0" precision="FP16">
					<dim>1</dim>
					<dim>384</dim>
					<dim>8</dim>
					<dim>64</dim>
				</port>
				<port id="1" precision="I64">
					<dim>4</dim>
				</port>
			</input>
			<output>
				<port id="2" names="480" precision="FP16">
					<dim>1</dim>
					<dim>8</dim>
					<dim>384</dim>
					<dim>64</dim>
				</port>
			</output>
		</layer>
		<layer id="218" name="460" type="Const" version="opset1">
			<data element_type="f16" offset="69347504" shape="512, 512" size="524288"/>
			<output>
				<port id="0" names="460" precision="FP16">
					<dim>512</dim>
					<dim>512</dim>
				</port>
			</output>
		</layer>
		<layer id="219" name="461" type="MatMul" version="opset1">
			<data transpose_a="false" transpose_b="true"/>
			<input>
				<port id="0" precision="FP16">
					<dim>1</dim>
					<dim>384</dim>
					<dim>512</dim>
				</port>
				<port id="1" precision="FP16">
					<dim>512</dim>
					<dim>512</dim>
				</port>
			</input>
			<output>
				<port id="2" names="461" precision="FP16">
					<dim>1</dim>
					<dim>384</dim>
					<dim>512</dim>
				</port>
			</output>
		</layer>
		<layer id="220" name="bert.encoder.layer.1.attention.self.key.bias" type="Const" version="opset1">
			<data element_type="f16" offset="69871792" shape="1, 1, 512" size="1024"/>
			<output>
				<port id="0" names="bert.encoder.layer.1.attention.self.key.bias" precision="FP16">
					<dim>1</dim>
					<dim>1</dim>
					<dim>512</dim>
				</port>
			</output>
		</layer>
		<layer id="221" name="462" type="Add" version="opset1">
			<data auto_broadcast="numpy"/>
			<input>
				<port id="0" precision="FP16">
					<dim>1</dim>
					<dim>384</dim>
					<dim>512</dim>
				</port>
				<port id="1" precision="FP16">
					<dim>1</dim>
					<dim>1</dim>
					<dim>512</dim>
				</port>
			</input>
			<output>
				<port id="2" names="462" precision="FP16">
					<dim>1</dim>
					<dim>384</dim>
					<dim>512</dim>
				</port>
			</output>
		</layer>
		<layer id="222" name="482" type="ShapeOf" version="opset3">
			<data output_type="i64"/>
			<input>
				<port id="0" precision="FP16">
					<dim>1</dim>
					<dim>384</dim>
					<dim>512</dim>
				</port>
			</input>
			<output>
				<port id="1" names="482" precision="I64">
					<dim>3</dim>
				</port>
			</output>
		</layer>
		<layer id="223" name="481" type="Const" version="opset1">
			<data element_type="i32" offset="63557668" shape="" size="4"/>
			<output>
				<port id="0" names="481" precision="I32"/>
			</output>
		</layer>
		<layer id="224" name="483/axis" type="Const" version="opset1">
			<data element_type="i64" offset="62509056" shape="" size="8"/>
			<output>
				<port id="0" precision="I64"/>
			</output>
		</layer>
		<layer id="225" name="4832940" type="Gather" version="opset7">
			<data batch_dims="0"/>
			<input>
				<port id="0" precision="I64">
					<dim>3</dim>
				</port>
				<port id="1" precision="I32"/>
				<port id="2" precision="I64"/>
			</input>
			<output>
				<port id="3" names="483" precision="I64"/>
			</output>
		</layer>
		<layer id="226" name="489/Dims" type="Const" version="opset1">
			<data element_type="i64" offset="62509056" shape="1" size="8"/>
			<output>
				<port id="0" precision="I64">
					<dim>1</dim>
				</port>
			</output>
		</layer>
		<layer id="227" name="489/Unsqueeze" type="Unsqueeze" version="opset1">
			<input>
				<port id="0" precision="I64"/>
				<port id="1" precision="I64">
					<dim>1</dim>
				</port>
			</input>
			<output>
				<port id="2" names="489" precision="I64">
					<dim>1</dim>
				</port>
			</output>
		</layer>
		<layer id="228" name="485" type="ShapeOf" version="opset3">
			<data output_type="i64"/>
			<input>
				<port id="0" precision="FP16">
					<dim>1</dim>
					<dim>384</dim>
					<dim>512</dim>
				</port>
			</input>
			<output>
				<port id="1" names="485" precision="I64">
					<dim>3</dim>
				</port>
			</output>
		</layer>
		<layer id="229" name="484" type="Const" version="opset1">
			<data element_type="i32" offset="63557648" shape="" size="4"/>
			<output>
				<port id="0" names="484" precision="I32"/>
			</output>
		</layer>
		<layer id="230" name="486/axis" type="Const" version="opset1">
			<data element_type="i64" offset="62509056" shape="" size="8"/>
			<output>
				<port id="0" precision="I64"/>
			</output>
		</layer>
		<layer id="231" name="4862910" type="Gather" version="opset7">
			<data batch_dims="0"/>
			<input>
				<port id="0" precision="I64">
					<dim>3</dim>
				</port>
				<port id="1" precision="I32"/>
				<port id="2" precision="I64"/>
			</input>
			<output>
				<port id="3" names="486" precision="I64"/>
			</output>
		</layer>
		<layer id="232" name="490/Dims" type="Const" version="opset1">
			<data element_type="i64" offset="62509056" shape="1" size="8"/>
			<output>
				<port id="0" precision="I64">
					<dim>1</dim>
				</port>
			</output>
		</layer>
		<layer id="233" name="490/Unsqueeze" type="Unsqueeze" version="opset1">
			<input>
				<port id="0" precision="I64"/>
				<port id="1" precision="I64">
					<dim>1</dim>
				</port>
			</input>
			<output>
				<port id="2" names="490" precision="I64">
					<dim>1</dim>
				</port>
			</output>
		</layer>
		<layer id="234" name="491/Unsqueeze" type="Const" version="opset1">
			<data element_type="i64" offset="65140784" shape="1" size="8"/>
			<output>
				<port id="0" names="491" precision="I64">
					<dim>1</dim>
				</port>
			</output>
		</layer>
		<layer id="235" name="492/Unsqueeze" type="Const" version="opset1">
			<data element_type="i64" offset="65140792" shape="1" size="8"/>
			<output>
				<port id="0" names="492" precision="I64">
					<dim>1</dim>
				</port>
			</output>
		</layer>
		<layer id="236" name="493" type="Concat" version="opset1">
			<data axis="0"/>
			<input>
				<port id="0" precision="I64">
					<dim>1</dim>
				</port>
				<port id="1" precision="I64">
					<dim>1</dim>
				</port>
				<port id="2" precision="I64">
					<dim>1</dim>
				</port>
				<port id="3" precision="I64">
					<dim>1</dim>
				</port>
			</input>
			<output>
				<port id="4" names="493" precision="I64">
					<dim>4</dim>
				</port>
			</output>
		</layer>
		<layer id="237" name="494" type="Reshape" version="opset1">
			<data special_zero="true"/>
			<input>
				<port id="0" precision="FP16">
					<dim>1</dim>
					<dim>384</dim>
					<dim>512</dim>
				</port>
				<port id="1" precision="I64">
					<dim>4</dim>
				</port>
			</input>
			<output>
				<port id="2" names="494" precision="FP16">
					<dim>1</dim>
					<dim>384</dim>
					<dim>8</dim>
					<dim>64</dim>
				</port>
			</output>
		</layer>
		<layer id="238" name="2112" type="Const" version="opset1">
			<data element_type="i64" offset="65666144" shape="4" size="32"/>
			<output>
				<port id="0" precision="I64">
					<dim>4</dim>
				</port>
			</output>
		</layer>
		<layer id="239" name="510" type="Transpose" version="opset1">
			<input>
				<port id="0" precision="FP16">
					<dim>1</dim>
					<dim>384</dim>
					<dim>8</dim>
					<dim>64</dim>
				</port>
				<port id="1" precision="I64">
					<dim>4</dim>
				</port>
			</input>
			<output>
				<port id="2" precision="FP16">
					<dim>1</dim>
					<dim>8</dim>
					<dim>64</dim>
					<dim>384</dim>
				</port>
			</output>
		</layer>
		<layer id="240" name="513_copy/const26879" type="Const" version="opset1">
			<data element_type="f16" offset="65666176" shape="1, 8, 1, 1" size="16"/>
			<output>
				<port id="0" precision="FP16">
					<dim>1</dim>
					<dim>8</dim>
					<dim>1</dim>
					<dim>1</dim>
				</port>
			</output>
		</layer>
		<layer id="241" name="513_copy" type="Multiply" version="opset1">
			<data auto_broadcast="numpy"/>
			<input>
				<port id="0" precision="FP16">
					<dim>1</dim>
					<dim>8</dim>
					<dim>64</dim>
					<dim>384</dim>
				</port>
				<port id="1" precision="FP16">
					<dim>1</dim>
					<dim>8</dim>
					<dim>1</dim>
					<dim>1</dim>
				</port>
			</input>
			<output>
				<port id="2" names="510" precision="FP16">
					<dim>1</dim>
					<dim>8</dim>
					<dim>64</dim>
					<dim>384</dim>
				</port>
			</output>
		</layer>
		<layer id="242" name="511" type="MatMul" version="opset1">
			<data transpose_a="false" transpose_b="false"/>
			<input>
				<port id="0" precision="FP16">
					<dim>1</dim>
					<dim>8</dim>
					<dim>384</dim>
					<dim>64</dim>
				</port>
				<port id="1" precision="FP16">
					<dim>1</dim>
					<dim>8</dim>
					<dim>64</dim>
					<dim>384</dim>
				</port>
			</input>
			<output>
				<port id="2" names="513" precision="FP16">
					<dim>1</dim>
					<dim>8</dim>
					<dim>384</dim>
					<dim>384</dim>
				</port>
			</output>
		</layer>
		<layer id="243" name="514" type="Add" version="opset1">
			<data auto_broadcast="numpy"/>
			<input>
				<port id="0" precision="FP16">
					<dim>1</dim>
					<dim>8</dim>
					<dim>384</dim>
					<dim>384</dim>
				</port>
				<port id="1" precision="FP16">
					<dim>1</dim>
					<dim>1</dim>
					<dim>1</dim>
					<dim>384</dim>
				</port>
			</input>
			<output>
				<port id="2" names="514" precision="FP16">
					<dim>1</dim>
					<dim>8</dim>
					<dim>384</dim>
					<dim>384</dim>
				</port>
			</output>
		</layer>
		<layer id="244" name="515/FlattenONNX_/input_shape" type="ShapeOf" version="opset3">
			<data output_type="i64"/>
			<input>
				<port id="0" precision="FP16">
					<dim>1</dim>
					<dim>8</dim>
					<dim>384</dim>
					<dim>384</dim>
				</port>
			</input>
			<output>
				<port id="1" precision="I64">
					<dim>4</dim>
				</port>
			</output>
		</layer>
		<layer id="245" name="515/FlattenONNX_/input_shape/Indices" type="Const" version="opset1">
			<data element_type="i32" offset="65666204" shape="3" size="12"/>
			<output>
				<port id="0" precision="I32">
					<dim>3</dim>
				</port>
			</output>
		</layer>
		<layer id="246" name="515/FlattenONNX_/input_shape/Axis" type="Const" version="opset1">
			<data element_type="i64" offset="62509056" shape="" size="8"/>
			<output>
				<port id="0" precision="I64"/>
			</output>
		</layer>
		<layer id="247" name="515/FlattenONNX_/input_shape/Gather" type="Gather" version="opset7">
			<data batch_dims="0"/>
			<input>
				<port id="0" precision="I64">
					<dim>4</dim>
				</port>
				<port id="1" precision="I32">
					<dim>3</dim>
				</port>
				<port id="2" precision="I64"/>
			</input>
			<output>
				<port id="3" precision="I64">
					<dim>3</dim>
				</port>
			</output>
		</layer>
		<layer id="248" name="515/FlattenONNX_/first_dims/value" type="Const" version="opset1">
			<data element_type="i64" offset="62509056" shape="1" size="8"/>
			<output>
				<port id="0" precision="I64">
					<dim>1</dim>
				</port>
			</output>
		</layer>
		<layer id="249" name="515/FlattenONNX_/first_dims" type="ReduceProd" version="opset1">
			<data keep_dims="true"/>
			<input>
				<port id="0" precision="I64">
					<dim>3</dim>
				</port>
				<port id="1" precision="I64">
					<dim>1</dim>
				</port>
			</input>
			<output>
				<port id="2" precision="I64">
					<dim>1</dim>
				</port>
			</output>
		</layer>
		<layer id="250" name="515/FlattenONNX_/second_dims" type="Const" version="opset1">
			<data element_type="i64" offset="63561768" shape="1" size="8"/>
			<output>
				<port id="0" precision="I64">
					<dim>1</dim>
				</port>
			</output>
		</layer>
		<layer id="251" name="515/FlattenONNX_/first_dims/shapes_concat" type="Concat" version="opset1">
			<data axis="0"/>
			<input>
				<port id="0" precision="I64">
					<dim>1</dim>
				</port>
				<port id="1" precision="I64">
					<dim>1</dim>
				</port>
			</input>
			<output>
				<port id="2" precision="I64">
					<dim>2</dim>
				</port>
			</output>
		</layer>
		<layer id="252" name="515/FlattenONNX_/Reshape" type="Reshape" version="opset1">
			<data special_zero="true"/>
			<input>
				<port id="0" precision="FP16">
					<dim>1</dim>
					<dim>8</dim>
					<dim>384</dim>
					<dim>384</dim>
				</port>
				<port id="1" precision="I64">
					<dim>2</dim>
				</port>
			</input>
			<output>
				<port id="2" precision="FP16">
					<dim>3072</dim>
					<dim>384</dim>
				</port>
			</output>
		</layer>
		<layer id="253" name="515/Softmax_" type="SoftMax" version="opset1">
			<data axis="1"/>
			<input>
				<port id="0" precision="FP16">
					<dim>3072</dim>
					<dim>384</dim>
				</port>
			</input>
			<output>
				<port id="1" precision="FP16">
					<dim>3072</dim>
					<dim>384</dim>
				</port>
			</output>
		</layer>
		<layer id="254" name="515/ShapeOf_" type="ShapeOf" version="opset3">
			<data output_type="i64"/>
			<input>
				<port id="0" precision="FP16">
					<dim>1</dim>
					<dim>8</dim>
					<dim>384</dim>
					<dim>384</dim>
				</port>
			</input>
			<output>
				<port id="1" precision="I64">
					<dim>4</dim>
				</port>
			</output>
		</layer>
		<layer id="255" name="515" type="Reshape" version="opset1">
			<data special_zero="true"/>
			<input>
				<port id="0" precision="FP16">
					<dim>3072</dim>
					<dim>384</dim>
				</port>
				<port id="1" precision="I64">
					<dim>4</dim>
				</port>
			</input>
			<output>
				<port id="2" names="515" precision="FP16">
					<dim>1</dim>
					<dim>8</dim>
					<dim>384</dim>
					<dim>384</dim>
				</port>
			</output>
		</layer>
		<layer id="256" name="463" type="Const" version="opset1">
			<data element_type="f16" offset="69872816" shape="512, 512" size="524288"/>
			<output>
				<port id="0" names="463" precision="FP16">
					<dim>512</dim>
					<dim>512</dim>
				</port>
			</output>
		</layer>
		<layer id="257" name="464" type="MatMul" version="opset1">
			<data transpose_a="false" transpose_b="true"/>
			<input>
				<port id="0" precision="FP16">
					<dim>1</dim>
					<dim>384</dim>
					<dim>512</dim>
				</port>
				<port id="1" precision="FP16">
					<dim>512</dim>
					<dim>512</dim>
				</port>
			</input>
			<output>
				<port id="2" names="464" precision="FP16">
					<dim>1</dim>
					<dim>384</dim>
					<dim>512</dim>
				</port>
			</output>
		</layer>
		<layer id="258" name="bert.encoder.layer.1.attention.self.value.bias" type="Const" version="opset1">
			<data element_type="f16" offset="70397104" shape="1, 1, 512" size="1024"/>
			<output>
				<port id="0" names="bert.encoder.layer.1.attention.self.value.bias" precision="FP16">
					<dim>1</dim>
					<dim>1</dim>
					<dim>512</dim>
				</port>
			</output>
		</layer>
		<layer id="259" name="465" type="Add" version="opset1">
			<data auto_broadcast="numpy"/>
			<input>
				<port id="0" precision="FP16">
					<dim>1</dim>
					<dim>384</dim>
					<dim>512</dim>
				</port>
				<port id="1" precision="FP16">
					<dim>1</dim>
					<dim>1</dim>
					<dim>512</dim>
				</port>
			</input>
			<output>
				<port id="2" names="465" precision="FP16">
					<dim>1</dim>
					<dim>384</dim>
					<dim>512</dim>
				</port>
			</output>
		</layer>
		<layer id="260" name="496" type="ShapeOf" version="opset3">
			<data output_type="i64"/>
			<input>
				<port id="0" precision="FP16">
					<dim>1</dim>
					<dim>384</dim>
					<dim>512</dim>
				</port>
			</input>
			<output>
				<port id="1" names="496" precision="I64">
					<dim>3</dim>
				</port>
			</output>
		</layer>
		<layer id="261" name="495" type="Const" version="opset1">
			<data element_type="i32" offset="63557668" shape="" size="4"/>
			<output>
				<port id="0" names="495" precision="I32"/>
			</output>
		</layer>
		<layer id="262" name="497/axis" type="Const" version="opset1">
			<data element_type="i64" offset="62509056" shape="" size="8"/>
			<output>
				<port id="0" precision="I64"/>
			</output>
		</layer>
		<layer id="263" name="4972948" type="Gather" version="opset7">
			<data batch_dims="0"/>
			<input>
				<port id="0" precision="I64">
					<dim>3</dim>
				</port>
				<port id="1" precision="I32"/>
				<port id="2" precision="I64"/>
			</input>
			<output>
				<port id="3" names="497" precision="I64"/>
			</output>
		</layer>
		<layer id="264" name="503/Dims" type="Const" version="opset1">
			<data element_type="i64" offset="62509056" shape="1" size="8"/>
			<output>
				<port id="0" precision="I64">
					<dim>1</dim>
				</port>
			</output>
		</layer>
		<layer id="265" name="503/Unsqueeze" type="Unsqueeze" version="opset1">
			<input>
				<port id="0" precision="I64"/>
				<port id="1" precision="I64">
					<dim>1</dim>
				</port>
			</input>
			<output>
				<port id="2" names="503" precision="I64">
					<dim>1</dim>
				</port>
			</output>
		</layer>
		<layer id="266" name="499" type="ShapeOf" version="opset3">
			<data output_type="i64"/>
			<input>
				<port id="0" precision="FP16">
					<dim>1</dim>
					<dim>384</dim>
					<dim>512</dim>
				</port>
			</input>
			<output>
				<port id="1" names="499" precision="I64">
					<dim>3</dim>
				</port>
			</output>
		</layer>
		<layer id="267" name="498" type="Const" version="opset1">
			<data element_type="i32" offset="63557648" shape="" size="4"/>
			<output>
				<port id="0" names="498" precision="I32"/>
			</output>
		</layer>
		<layer id="268" name="500/axis" type="Const" version="opset1">
			<data element_type="i64" offset="62509056" shape="" size="8"/>
			<output>
				<port id="0" precision="I64"/>
			</output>
		</layer>
		<layer id="269" name="5002860" type="Gather" version="opset7">
			<data batch_dims="0"/>
			<input>
				<port id="0" precision="I64">
					<dim>3</dim>
				</port>
				<port id="1" precision="I32"/>
				<port id="2" precision="I64"/>
			</input>
			<output>
				<port id="3" names="500" precision="I64"/>
			</output>
		</layer>
		<layer id="270" name="504/Dims" type="Const" version="opset1">
			<data element_type="i64" offset="62509056" shape="1" size="8"/>
			<output>
				<port id="0" precision="I64">
					<dim>1</dim>
				</port>
			</output>
		</layer>
		<layer id="271" name="504/Unsqueeze" type="Unsqueeze" version="opset1">
			<input>
				<port id="0" precision="I64"/>
				<port id="1" precision="I64">
					<dim>1</dim>
				</port>
			</input>
			<output>
				<port id="2" names="504" precision="I64">
					<dim>1</dim>
				</port>
			</output>
		</layer>
		<layer id="272" name="505/Unsqueeze" type="Const" version="opset1">
			<data element_type="i64" offset="65140784" shape="1" size="8"/>
			<output>
				<port id="0" names="505" precision="I64">
					<dim>1</dim>
				</port>
			</output>
		</layer>
		<layer id="273" name="506/Unsqueeze" type="Const" version="opset1">
			<data element_type="i64" offset="65140792" shape="1" size="8"/>
			<output>
				<port id="0" names="506" precision="I64">
					<dim>1</dim>
				</port>
			</output>
		</layer>
		<layer id="274" name="507" type="Concat" version="opset1">
			<data axis="0"/>
			<input>
				<port id="0" precision="I64">
					<dim>1</dim>
				</port>
				<port id="1" precision="I64">
					<dim>1</dim>
				</port>
				<port id="2" precision="I64">
					<dim>1</dim>
				</port>
				<port id="3" precision="I64">
					<dim>1</dim>
				</port>
			</input>
			<output>
				<port id="4" names="507" precision="I64">
					<dim>4</dim>
				</port>
			</output>
		</layer>
		<layer id="275" name="508" type="Reshape" version="opset1">
			<data special_zero="true"/>
			<input>
				<port id="0" precision="FP16">
					<dim>1</dim>
					<dim>384</dim>
					<dim>512</dim>
				</port>
				<port id="1" precision="I64">
					<dim>4</dim>
				</port>
			</input>
			<output>
				<port id="2" names="508" precision="FP16">
					<dim>1</dim>
					<dim>384</dim>
					<dim>8</dim>
					<dim>64</dim>
				</port>
			</output>
		</layer>
		<layer id="276" name="1987" type="Const" version="opset1">
			<data element_type="i64" offset="65140800" shape="4" size="32"/>
			<output>
				<port id="0" precision="I64">
					<dim>4</dim>
				</port>
			</output>
		</layer>
		<layer id="277" name="509" type="Transpose" version="opset1">
			<input>
				<port id="0" precision="FP16">
					<dim>1</dim>
					<dim>384</dim>
					<dim>8</dim>
					<dim>64</dim>
				</port>
				<port id="1" precision="I64">
					<dim>4</dim>
				</port>
			</input>
			<output>
				<port id="2" names="509" precision="FP16">
					<dim>1</dim>
					<dim>8</dim>
					<dim>384</dim>
					<dim>64</dim>
				</port>
			</output>
		</layer>
		<layer id="278" name="516" type="MatMul" version="opset1">
			<data transpose_a="false" transpose_b="false"/>
			<input>
				<port id="0" precision="FP16">
					<dim>1</dim>
					<dim>8</dim>
					<dim>384</dim>
					<dim>384</dim>
				</port>
				<port id="1" precision="FP16">
					<dim>1</dim>
					<dim>8</dim>
					<dim>384</dim>
					<dim>64</dim>
				</port>
			</input>
			<output>
				<port id="2" names="516" precision="FP16">
					<dim>1</dim>
					<dim>8</dim>
					<dim>384</dim>
					<dim>64</dim>
				</port>
			</output>
		</layer>
		<layer id="279" name="1986" type="Const" version="opset1">
			<data element_type="i64" offset="65140800" shape="4" size="32"/>
			<output>
				<port id="0" precision="I64">
					<dim>4</dim>
				</port>
			</output>
		</layer>
		<layer id="280" name="517" type="Transpose" version="opset1">
			<input>
				<port id="0" precision="FP16">
					<dim>1</dim>
					<dim>8</dim>
					<dim>384</dim>
					<dim>64</dim>
				</port>
				<port id="1" precision="I64">
					<dim>4</dim>
				</port>
			</input>
			<output>
				<port id="2" names="517" precision="FP16">
					<dim>1</dim>
					<dim>384</dim>
					<dim>8</dim>
					<dim>64</dim>
				</port>
			</output>
		</layer>
		<layer id="281" name="519" type="ShapeOf" version="opset3">
			<data output_type="i64"/>
			<input>
				<port id="0" precision="FP16">
					<dim>1</dim>
					<dim>384</dim>
					<dim>8</dim>
					<dim>64</dim>
				</port>
			</input>
			<output>
				<port id="1" names="519" precision="I64">
					<dim>4</dim>
				</port>
			</output>
		</layer>
		<layer id="282" name="518" type="Const" version="opset1">
			<data element_type="i32" offset="63557668" shape="" size="4"/>
			<output>
				<port id="0" names="518" precision="I32"/>
			</output>
		</layer>
		<layer id="283" name="520/axis" type="Const" version="opset1">
			<data element_type="i64" offset="62509056" shape="" size="8"/>
			<output>
				<port id="0" precision="I64"/>
			</output>
		</layer>
		<layer id="284" name="5203016" type="Gather" version="opset7">
			<data batch_dims="0"/>
			<input>
				<port id="0" precision="I64">
					<dim>4</dim>
				</port>
				<port id="1" precision="I32"/>
				<port id="2" precision="I64"/>
			</input>
			<output>
				<port id="3" names="520" precision="I64"/>
			</output>
		</layer>
		<layer id="285" name="525/Dims" type="Const" version="opset1">
			<data element_type="i64" offset="62509056" shape="1" size="8"/>
			<output>
				<port id="0" precision="I64">
					<dim>1</dim>
				</port>
			</output>
		</layer>
		<layer id="286" name="525/Unsqueeze" type="Unsqueeze" version="opset1">
			<input>
				<port id="0" precision="I64"/>
				<port id="1" precision="I64">
					<dim>1</dim>
				</port>
			</input>
			<output>
				<port id="2" names="525" precision="I64">
					<dim>1</dim>
				</port>
			</output>
		</layer>
		<layer id="287" name="522" type="ShapeOf" version="opset3">
			<data output_type="i64"/>
			<input>
				<port id="0" precision="FP16">
					<dim>1</dim>
					<dim>384</dim>
					<dim>8</dim>
					<dim>64</dim>
				</port>
			</input>
			<output>
				<port id="1" names="522" precision="I64">
					<dim>4</dim>
				</port>
			</output>
		</layer>
		<layer id="288" name="521" type="Const" version="opset1">
			<data element_type="i32" offset="63557648" shape="" size="4"/>
			<output>
				<port id="0" names="521" precision="I32"/>
			</output>
		</layer>
		<layer id="289" name="523/axis" type="Const" version="opset1">
			<data element_type="i64" offset="62509056" shape="" size="8"/>
			<output>
				<port id="0" precision="I64"/>
			</output>
		</layer>
		<layer id="290" name="5232928" type="Gather" version="opset7">
			<data batch_dims="0"/>
			<input>
				<port id="0" precision="I64">
					<dim>4</dim>
				</port>
				<port id="1" precision="I32"/>
				<port id="2" precision="I64"/>
			</input>
			<output>
				<port id="3" names="523" precision="I64"/>
			</output>
		</layer>
		<layer id="291" name="526/Dims" type="Const" version="opset1">
			<data element_type="i64" offset="62509056" shape="1" size="8"/>
			<output>
				<port id="0" precision="I64">
					<dim>1</dim>
				</port>
			</output>
		</layer>
		<layer id="292" name="526/Unsqueeze" type="Unsqueeze" version="opset1">
			<input>
				<port id="0" precision="I64"/>
				<port id="1" precision="I64">
					<dim>1</dim>
				</port>
			</input>
			<output>
				<port id="2" names="526" precision="I64">
					<dim>1</dim>
				</port>
			</output>
		</layer>
		<layer id="293" name="527/Unsqueeze" type="Const" version="opset1">
			<data element_type="i64" offset="66191528" shape="1" size="8"/>
			<output>
				<port id="0" names="527" precision="I64">
					<dim>1</dim>
				</port>
			</output>
		</layer>
		<layer id="294" name="528" type="Concat" version="opset1">
			<data axis="0"/>
			<input>
				<port id="0" precision="I64">
					<dim>1</dim>
				</port>
				<port id="1" precision="I64">
					<dim>1</dim>
				</port>
				<port id="2" precision="I64">
					<dim>1</dim>
				</port>
			</input>
			<output>
				<port id="3" names="528" precision="I64">
					<dim>3</dim>
				</port>
			</output>
		</layer>
		<layer id="295" name="529" type="Reshape" version="opset1">
			<data special_zero="true"/>
			<input>
				<port id="0" precision="FP16">
					<dim>1</dim>
					<dim>384</dim>
					<dim>8</dim>
					<dim>64</dim>
				</port>
				<port id="1" precision="I64">
					<dim>3</dim>
				</port>
			</input>
			<output>
				<port id="2" names="529" precision="FP16">
					<dim>1</dim>
					<dim>384</dim>
					<dim>512</dim>
				</port>
			</output>
		</layer>
		<layer id="296" name="530" type="Const" version="opset1">
			<data element_type="f16" offset="70398128" shape="512, 512" size="524288"/>
			<output>
				<port id="0" names="530" precision="FP16">
					<dim>512</dim>
					<dim>512</dim>
				</port>
			</output>
		</layer>
		<layer id="297" name="531" type="MatMul" version="opset1">
			<data transpose_a="false" transpose_b="true"/>
			<input>
				<port id="0" precision="FP16">
					<dim>1</dim>
					<dim>384</dim>
					<dim>512</dim>
				</port>
				<port id="1" precision="FP16">
					<dim>512</dim>
					<dim>512</dim>
				</port>
			</input>
			<output>
				<port id="2" names="531" precision="FP16">
					<dim>1</dim>
					<dim>384</dim>
					<dim>512</dim>
				</port>
			</output>
		</layer>
		<layer id="298" name="bert.encoder.layer.1.attention.output.dense.bias" type="Const" version="opset1">
			<data element_type="f16" offset="70922416" shape="1, 1, 512" size="1024"/>
			<output>
				<port id="0" names="bert.encoder.layer.1.attention.output.dense.bias" precision="FP16">
					<dim>1</dim>
					<dim>1</dim>
					<dim>512</dim>
				</port>
			</output>
		</layer>
		<layer id="299" name="532" type="Add" version="opset1">
			<data auto_broadcast="numpy"/>
			<input>
				<port id="0" precision="FP16">
					<dim>1</dim>
					<dim>384</dim>
					<dim>512</dim>
				</port>
				<port id="1" precision="FP16">
					<dim>1</dim>
					<dim>1</dim>
					<dim>512</dim>
				</port>
			</input>
			<output>
				<port id="2" names="532" precision="FP16">
					<dim>1</dim>
					<dim>384</dim>
					<dim>512</dim>
				</port>
			</output>
		</layer>
		<layer id="300" name="533" type="Add" version="opset1">
			<data auto_broadcast="numpy"/>
			<input>
				<port id="0" precision="FP16">
					<dim>1</dim>
					<dim>384</dim>
					<dim>512</dim>
				</port>
				<port id="1" precision="FP16">
					<dim>1</dim>
					<dim>384</dim>
					<dim>512</dim>
				</port>
			</input>
			<output>
				<port id="2" names="533" precision="FP16">
					<dim>1</dim>
					<dim>384</dim>
					<dim>512</dim>
				</port>
			</output>
		</layer>
		<layer id="301" name="2650_input_port_1/value" type="Const" version="opset1">
			<data element_type="i64" offset="63561768" shape="1" size="8"/>
			<output>
				<port id="0" precision="I64">
					<dim>1</dim>
				</port>
			</output>
		</layer>
		<layer id="302" name="542" type="MVN" version="opset6">
			<data eps="9.999999960041972e-13" eps_mode="INSIDE_SQRT" normalize_variance="true"/>
			<input>
				<port id="0" precision="FP16">
					<dim>1</dim>
					<dim>384</dim>
					<dim>512</dim>
				</port>
				<port id="1" precision="I64">
					<dim>1</dim>
				</port>
			</input>
			<output>
				<port id="2" names="542" precision="FP16">
					<dim>1</dim>
					<dim>384</dim>
					<dim>512</dim>
				</port>
			</output>
		</layer>
		<layer id="303" name="bert.encoder.layer.1.attention.output.LayerNorm.weight" type="Const" version="opset1">
			<data element_type="f16" offset="70923440" shape="1, 1, 512" size="1024"/>
			<output>
				<port id="0" names="bert.encoder.layer.1.attention.output.LayerNorm.weight" precision="FP16">
					<dim>1</dim>
					<dim>1</dim>
					<dim>512</dim>
				</port>
			</output>
		</layer>
		<layer id="304" name="543" type="Multiply" version="opset1">
			<data auto_broadcast="numpy"/>
			<input>
				<port id="0" precision="FP16">
					<dim>1</dim>
					<dim>384</dim>
					<dim>512</dim>
				</port>
				<port id="1" precision="FP16">
					<dim>1</dim>
					<dim>1</dim>
					<dim>512</dim>
				</port>
			</input>
			<output>
				<port id="2" names="543" precision="FP16">
					<dim>1</dim>
					<dim>384</dim>
					<dim>512</dim>
				</port>
			</output>
		</layer>
		<layer id="305" name="bert.encoder.layer.1.attention.output.LayerNorm.bias" type="Const" version="opset1">
			<data element_type="f16" offset="70924464" shape="1, 1, 512" size="1024"/>
			<output>
				<port id="0" names="bert.encoder.layer.1.attention.output.LayerNorm.bias" precision="FP16">
					<dim>1</dim>
					<dim>1</dim>
					<dim>512</dim>
				</port>
			</output>
		</layer>
		<layer id="306" name="544" type="Add" version="opset1">
			<data auto_broadcast="numpy"/>
			<input>
				<port id="0" precision="FP16">
					<dim>1</dim>
					<dim>384</dim>
					<dim>512</dim>
				</port>
				<port id="1" precision="FP16">
					<dim>1</dim>
					<dim>1</dim>
					<dim>512</dim>
				</port>
			</input>
			<output>
				<port id="2" names="544" precision="FP16">
					<dim>1</dim>
					<dim>384</dim>
					<dim>512</dim>
				</port>
			</output>
		</layer>
		<layer id="307" name="545" type="Const" version="opset1">
			<data element_type="f16" offset="70925488" shape="512, 512" size="524288"/>
			<output>
				<port id="0" names="545" precision="FP16">
					<dim>512</dim>
					<dim>512</dim>
				</port>
			</output>
		</layer>
		<layer id="308" name="546" type="MatMul" version="opset1">
			<data transpose_a="false" transpose_b="true"/>
			<input>
				<port id="0" precision="FP16">
					<dim>1</dim>
					<dim>384</dim>
					<dim>512</dim>
				</port>
				<port id="1" precision="FP16">
					<dim>512</dim>
					<dim>512</dim>
				</port>
			</input>
			<output>
				<port id="2" names="546" precision="FP16">
					<dim>1</dim>
					<dim>384</dim>
					<dim>512</dim>
				</port>
			</output>
		</layer>
		<layer id="309" name="bert.encoder.layer.1.intermediate.denses.0.bias" type="Const" version="opset1">
			<data element_type="f16" offset="71449776" shape="1, 1, 512" size="1024"/>
			<output>
				<port id="0" names="bert.encoder.layer.1.intermediate.denses.0.bias" precision="FP16">
					<dim>1</dim>
					<dim>1</dim>
					<dim>512</dim>
				</port>
			</output>
		</layer>
		<layer id="310" name="547" type="Add" version="opset1">
			<data auto_broadcast="numpy"/>
			<input>
				<port id="0" precision="FP16">
					<dim>1</dim>
					<dim>384</dim>
					<dim>512</dim>
				</port>
				<port id="1" precision="FP16">
					<dim>1</dim>
					<dim>1</dim>
					<dim>512</dim>
				</port>
			</input>
			<output>
				<port id="2" names="547" precision="FP16">
					<dim>1</dim>
					<dim>384</dim>
					<dim>512</dim>
				</port>
			</output>
		</layer>
		<layer id="311" name="555" type="Gelu" version="opset7">
			<data approximation_mode="ERF"/>
			<input>
				<port id="0" precision="FP16">
					<dim>1</dim>
					<dim>384</dim>
					<dim>512</dim>
				</port>
			</input>
			<output>
				<port id="1" names="555" precision="FP16">
					<dim>1</dim>
					<dim>384</dim>
					<dim>512</dim>
				</port>
			</output>
		</layer>
		<layer id="312" name="556" type="Const" version="opset1">
			<data element_type="f16" offset="71450800" shape="512, 512" size="524288"/>
			<output>
				<port id="0" names="556" precision="FP16">
					<dim>512</dim>
					<dim>512</dim>
				</port>
			</output>
		</layer>
		<layer id="313" name="557" type="MatMul" version="opset1">
			<data transpose_a="false" transpose_b="true"/>
			<input>
				<port id="0" precision="FP16">
					<dim>1</dim>
					<dim>384</dim>
					<dim>512</dim>
				</port>
				<port id="1" precision="FP16">
					<dim>512</dim>
					<dim>512</dim>
				</port>
			</input>
			<output>
				<port id="2" names="557" precision="FP16">
					<dim>1</dim>
					<dim>384</dim>
					<dim>512</dim>
				</port>
			</output>
		</layer>
		<layer id="314" name="bert.encoder.layer.1.intermediate.denses.1.bias" type="Const" version="opset1">
			<data element_type="f16" offset="71975088" shape="1, 1, 512" size="1024"/>
			<output>
				<port id="0" names="bert.encoder.layer.1.intermediate.denses.1.bias" precision="FP16">
					<dim>1</dim>
					<dim>1</dim>
					<dim>512</dim>
				</port>
			</output>
		</layer>
		<layer id="315" name="558" type="Add" version="opset1">
			<data auto_broadcast="numpy"/>
			<input>
				<port id="0" precision="FP16">
					<dim>1</dim>
					<dim>384</dim>
					<dim>512</dim>
				</port>
				<port id="1" precision="FP16">
					<dim>1</dim>
					<dim>1</dim>
					<dim>512</dim>
				</port>
			</input>
			<output>
				<port id="2" names="558" precision="FP16">
					<dim>1</dim>
					<dim>384</dim>
					<dim>512</dim>
				</port>
			</output>
		</layer>
		<layer id="316" name="566" type="Gelu" version="opset7">
			<data approximation_mode="ERF"/>
			<input>
				<port id="0" precision="FP16">
					<dim>1</dim>
					<dim>384</dim>
					<dim>512</dim>
				</port>
			</input>
			<output>
				<port id="1" names="566" precision="FP16">
					<dim>1</dim>
					<dim>384</dim>
					<dim>512</dim>
				</port>
			</output>
		</layer>
		<layer id="317" name="567" type="Const" version="opset1">
			<data element_type="f16" offset="71976112" shape="512, 512" size="524288"/>
			<output>
				<port id="0" names="567" precision="FP16">
					<dim>512</dim>
					<dim>512</dim>
				</port>
			</output>
		</layer>
		<layer id="318" name="568" type="MatMul" version="opset1">
			<data transpose_a="false" transpose_b="true"/>
			<input>
				<port id="0" precision="FP16">
					<dim>1</dim>
					<dim>384</dim>
					<dim>512</dim>
				</port>
				<port id="1" precision="FP16">
					<dim>512</dim>
					<dim>512</dim>
				</port>
			</input>
			<output>
				<port id="2" names="568" precision="FP16">
					<dim>1</dim>
					<dim>384</dim>
					<dim>512</dim>
				</port>
			</output>
		</layer>
		<layer id="319" name="bert.encoder.layer.1.intermediate.denses.2.bias" type="Const" version="opset1">
			<data element_type="f16" offset="72500400" shape="1, 1, 512" size="1024"/>
			<output>
				<port id="0" names="bert.encoder.layer.1.intermediate.denses.2.bias" precision="FP16">
					<dim>1</dim>
					<dim>1</dim>
					<dim>512</dim>
				</port>
			</output>
		</layer>
		<layer id="320" name="569" type="Add" version="opset1">
			<data auto_broadcast="numpy"/>
			<input>
				<port id="0" precision="FP16">
					<dim>1</dim>
					<dim>384</dim>
					<dim>512</dim>
				</port>
				<port id="1" precision="FP16">
					<dim>1</dim>
					<dim>1</dim>
					<dim>512</dim>
				</port>
			</input>
			<output>
				<port id="2" names="569" precision="FP16">
					<dim>1</dim>
					<dim>384</dim>
					<dim>512</dim>
				</port>
			</output>
		</layer>
		<layer id="321" name="577" type="Gelu" version="opset7">
			<data approximation_mode="ERF"/>
			<input>
				<port id="0" precision="FP16">
					<dim>1</dim>
					<dim>384</dim>
					<dim>512</dim>
				</port>
			</input>
			<output>
				<port id="1" names="577" precision="FP16">
					<dim>1</dim>
					<dim>384</dim>
					<dim>512</dim>
				</port>
			</output>
		</layer>
		<layer id="322" name="578" type="Const" version="opset1">
			<data element_type="f16" offset="72501424" shape="512, 512" size="524288"/>
			<output>
				<port id="0" names="578" precision="FP16">
					<dim>512</dim>
					<dim>512</dim>
				</port>
			</output>
		</layer>
		<layer id="323" name="579" type="MatMul" version="opset1">
			<data transpose_a="false" transpose_b="true"/>
			<input>
				<port id="0" precision="FP16">
					<dim>1</dim>
					<dim>384</dim>
					<dim>512</dim>
				</port>
				<port id="1" precision="FP16">
					<dim>512</dim>
					<dim>512</dim>
				</port>
			</input>
			<output>
				<port id="2" names="579" precision="FP16">
					<dim>1</dim>
					<dim>384</dim>
					<dim>512</dim>
				</port>
			</output>
		</layer>
		<layer id="324" name="bert.encoder.layer.1.output.dense.bias" type="Const" version="opset1">
			<data element_type="f16" offset="73025712" shape="1, 1, 512" size="1024"/>
			<output>
				<port id="0" names="bert.encoder.layer.1.output.dense.bias" precision="FP16">
					<dim>1</dim>
					<dim>1</dim>
					<dim>512</dim>
				</port>
			</output>
		</layer>
		<layer id="325" name="580" type="Add" version="opset1">
			<data auto_broadcast="numpy"/>
			<input>
				<port id="0" precision="FP16">
					<dim>1</dim>
					<dim>384</dim>
					<dim>512</dim>
				</port>
				<port id="1" precision="FP16">
					<dim>1</dim>
					<dim>1</dim>
					<dim>512</dim>
				</port>
			</input>
			<output>
				<port id="2" names="580" precision="FP16">
					<dim>1</dim>
					<dim>384</dim>
					<dim>512</dim>
				</port>
			</output>
		</layer>
		<layer id="326" name="581" type="Add" version="opset1">
			<data auto_broadcast="numpy"/>
			<input>
				<port id="0" precision="FP16">
					<dim>1</dim>
					<dim>384</dim>
					<dim>512</dim>
				</port>
				<port id="1" precision="FP16">
					<dim>1</dim>
					<dim>384</dim>
					<dim>512</dim>
				</port>
			</input>
			<output>
				<port id="2" names="581" precision="FP16">
					<dim>1</dim>
					<dim>384</dim>
					<dim>512</dim>
				</port>
			</output>
		</layer>
		<layer id="327" name="2646_input_port_1/value" type="Const" version="opset1">
			<data element_type="i64" offset="63561768" shape="1" size="8"/>
			<output>
				<port id="0" precision="I64">
					<dim>1</dim>
				</port>
			</output>
		</layer>
		<layer id="328" name="590" type="MVN" version="opset6">
			<data eps="9.999999960041972e-13" eps_mode="INSIDE_SQRT" normalize_variance="true"/>
			<input>
				<port id="0" precision="FP16">
					<dim>1</dim>
					<dim>384</dim>
					<dim>512</dim>
				</port>
				<port id="1" precision="I64">
					<dim>1</dim>
				</port>
			</input>
			<output>
				<port id="2" names="590" precision="FP16">
					<dim>1</dim>
					<dim>384</dim>
					<dim>512</dim>
				</port>
			</output>
		</layer>
		<layer id="329" name="bert.encoder.layer.1.output.LayerNorm.weight" type="Const" version="opset1">
			<data element_type="f16" offset="73026736" shape="1, 1, 512" size="1024"/>
			<output>
				<port id="0" names="bert.encoder.layer.1.output.LayerNorm.weight" precision="FP16">
					<dim>1</dim>
					<dim>1</dim>
					<dim>512</dim>
				</port>
			</output>
		</layer>
		<layer id="330" name="591" type="Multiply" version="opset1">
			<data auto_broadcast="numpy"/>
			<input>
				<port id="0" precision="FP16">
					<dim>1</dim>
					<dim>384</dim>
					<dim>512</dim>
				</port>
				<port id="1" precision="FP16">
					<dim>1</dim>
					<dim>1</dim>
					<dim>512</dim>
				</port>
			</input>
			<output>
				<port id="2" names="591" precision="FP16">
					<dim>1</dim>
					<dim>384</dim>
					<dim>512</dim>
				</port>
			</output>
		</layer>
		<layer id="331" name="bert.encoder.layer.1.output.LayerNorm.bias" type="Const" version="opset1">
			<data element_type="f16" offset="73027760" shape="1, 1, 512" size="1024"/>
			<output>
				<port id="0" names="bert.encoder.layer.1.output.LayerNorm.bias" precision="FP16">
					<dim>1</dim>
					<dim>1</dim>
					<dim>512</dim>
				</port>
			</output>
		</layer>
		<layer id="332" name="592" type="Add" version="opset1">
			<data auto_broadcast="numpy"/>
			<input>
				<port id="0" precision="FP16">
					<dim>1</dim>
					<dim>384</dim>
					<dim>512</dim>
				</port>
				<port id="1" precision="FP16">
					<dim>1</dim>
					<dim>1</dim>
					<dim>512</dim>
				</port>
			</input>
			<output>
				<port id="2" names="592" precision="FP16">
					<dim>1</dim>
					<dim>384</dim>
					<dim>512</dim>
				</port>
			</output>
		</layer>
		<layer id="333" name="593" type="Const" version="opset1">
			<data element_type="f16" offset="73028784" shape="512, 512" size="524288"/>
			<output>
				<port id="0" names="593" precision="FP16">
					<dim>512</dim>
					<dim>512</dim>
				</port>
			</output>
		</layer>
		<layer id="334" name="594" type="MatMul" version="opset1">
			<data transpose_a="false" transpose_b="true"/>
			<input>
				<port id="0" precision="FP16">
					<dim>1</dim>
					<dim>384</dim>
					<dim>512</dim>
				</port>
				<port id="1" precision="FP16">
					<dim>512</dim>
					<dim>512</dim>
				</port>
			</input>
			<output>
				<port id="2" names="594" precision="FP16">
					<dim>1</dim>
					<dim>384</dim>
					<dim>512</dim>
				</port>
			</output>
		</layer>
		<layer id="335" name="bert.encoder.layer.2.attention.self.query.bias" type="Const" version="opset1">
			<data element_type="f16" offset="73553072" shape="1, 1, 512" size="1024"/>
			<output>
				<port id="0" names="bert.encoder.layer.2.attention.self.query.bias" precision="FP16">
					<dim>1</dim>
					<dim>1</dim>
					<dim>512</dim>
				</port>
			</output>
		</layer>
		<layer id="336" name="595" type="Add" version="opset1">
			<data auto_broadcast="numpy"/>
			<input>
				<port id="0" precision="FP16">
					<dim>1</dim>
					<dim>384</dim>
					<dim>512</dim>
				</port>
				<port id="1" precision="FP16">
					<dim>1</dim>
					<dim>1</dim>
					<dim>512</dim>
				</port>
			</input>
			<output>
				<port id="2" names="595" precision="FP16">
					<dim>1</dim>
					<dim>384</dim>
					<dim>512</dim>
				</port>
			</output>
		</layer>
		<layer id="337" name="603" type="ShapeOf" version="opset3">
			<data output_type="i64"/>
			<input>
				<port id="0" precision="FP16">
					<dim>1</dim>
					<dim>384</dim>
					<dim>512</dim>
				</port>
			</input>
			<output>
				<port id="1" names="603" precision="I64">
					<dim>3</dim>
				</port>
			</output>
		</layer>
		<layer id="338" name="602" type="Const" version="opset1">
			<data element_type="i32" offset="63557668" shape="" size="4"/>
			<output>
				<port id="0" names="602" precision="I32"/>
			</output>
		</layer>
		<layer id="339" name="604/axis" type="Const" version="opset1">
			<data element_type="i64" offset="62509056" shape="" size="8"/>
			<output>
				<port id="0" precision="I64"/>
			</output>
		</layer>
		<layer id="340" name="6042982" type="Gather" version="opset7">
			<data batch_dims="0"/>
			<input>
				<port id="0" precision="I64">
					<dim>3</dim>
				</port>
				<port id="1" precision="I32"/>
				<port id="2" precision="I64"/>
			</input>
			<output>
				<port id="3" names="604" precision="I64"/>
			</output>
		</layer>
		<layer id="341" name="610/Dims" type="Const" version="opset1">
			<data element_type="i64" offset="62509056" shape="1" size="8"/>
			<output>
				<port id="0" precision="I64">
					<dim>1</dim>
				</port>
			</output>
		</layer>
		<layer id="342" name="610/Unsqueeze" type="Unsqueeze" version="opset1">
			<input>
				<port id="0" precision="I64"/>
				<port id="1" precision="I64">
					<dim>1</dim>
				</port>
			</input>
			<output>
				<port id="2" names="610" precision="I64">
					<dim>1</dim>
				</port>
			</output>
		</layer>
		<layer id="343" name="606" type="ShapeOf" version="opset3">
			<data output_type="i64"/>
			<input>
				<port id="0" precision="FP16">
					<dim>1</dim>
					<dim>384</dim>
					<dim>512</dim>
				</port>
			</input>
			<output>
				<port id="1" names="606" precision="I64">
					<dim>3</dim>
				</port>
			</output>
		</layer>
		<layer id="344" name="605" type="Const" version="opset1">
			<data element_type="i32" offset="63557648" shape="" size="4"/>
			<output>
				<port id="0" names="605" precision="I32"/>
			</output>
		</layer>
		<layer id="345" name="607/axis" type="Const" version="opset1">
			<data element_type="i64" offset="62509056" shape="" size="8"/>
			<output>
				<port id="0" precision="I64"/>
			</output>
		</layer>
		<layer id="346" name="6072972" type="Gather" version="opset7">
			<data batch_dims="0"/>
			<input>
				<port id="0" precision="I64">
					<dim>3</dim>
				</port>
				<port id="1" precision="I32"/>
				<port id="2" precision="I64"/>
			</input>
			<output>
				<port id="3" names="607" precision="I64"/>
			</output>
		</layer>
		<layer id="347" name="611/Dims" type="Const" version="opset1">
			<data element_type="i64" offset="62509056" shape="1" size="8"/>
			<output>
				<port id="0" precision="I64">
					<dim>1</dim>
				</port>
			</output>
		</layer>
		<layer id="348" name="611/Unsqueeze" type="Unsqueeze" version="opset1">
			<input>
				<port id="0" precision="I64"/>
				<port id="1" precision="I64">
					<dim>1</dim>
				</port>
			</input>
			<output>
				<port id="2" names="611" precision="I64">
					<dim>1</dim>
				</port>
			</output>
		</layer>
		<layer id="349" name="612/Unsqueeze" type="Const" version="opset1">
			<data element_type="i64" offset="65140784" shape="1" size="8"/>
			<output>
				<port id="0" names="612" precision="I64">
					<dim>1</dim>
				</port>
			</output>
		</layer>
		<layer id="350" name="613/Unsqueeze" type="Const" version="opset1">
			<data element_type="i64" offset="65140792" shape="1" size="8"/>
			<output>
				<port id="0" names="613" precision="I64">
					<dim>1</dim>
				</port>
			</output>
		</layer>
		<layer id="351" name="614" type="Concat" version="opset1">
			<data axis="0"/>
			<input>
				<port id="0" precision="I64">
					<dim>1</dim>
				</port>
				<port id="1" precision="I64">
					<dim>1</dim>
				</port>
				<port id="2" precision="I64">
					<dim>1</dim>
				</port>
				<port id="3" precision="I64">
					<dim>1</dim>
				</port>
			</input>
			<output>
				<port id="4" names="614" precision="I64">
					<dim>4</dim>
				</port>
			</output>
		</layer>
		<layer id="352" name="615" type="Reshape" version="opset1">
			<data special_zero="true"/>
			<input>
				<port id="0" precision="FP16">
					<dim>1</dim>
					<dim>384</dim>
					<dim>512</dim>
				</port>
				<port id="1" precision="I64">
					<dim>4</dim>
				</port>
			</input>
			<output>
				<port id="2" names="615" precision="FP16">
					<dim>1</dim>
					<dim>384</dim>
					<dim>8</dim>
					<dim>64</dim>
				</port>
			</output>
		</layer>
		<layer id="353" name="2114" type="Const" version="opset1">
			<data element_type="i64" offset="65140800" shape="4" size="32"/>
			<output>
				<port id="0" precision="I64">
					<dim>4</dim>
				</port>
			</output>
		</layer>
		<layer id="354" name="616" type="Transpose" version="opset1">
			<input>
				<port id="0" precision="FP16">
					<dim>1</dim>
					<dim>384</dim>
					<dim>8</dim>
					<dim>64</dim>
				</port>
				<port id="1" precision="I64">
					<dim>4</dim>
				</port>
			</input>
			<output>
				<port id="2" names="616" precision="FP16">
					<dim>1</dim>
					<dim>8</dim>
					<dim>384</dim>
					<dim>64</dim>
				</port>
			</output>
		</layer>
		<layer id="355" name="596" type="Const" version="opset1">
			<data element_type="f16" offset="73554096" shape="512, 512" size="524288"/>
			<output>
				<port id="0" names="596" precision="FP16">
					<dim>512</dim>
					<dim>512</dim>
				</port>
			</output>
		</layer>
		<layer id="356" name="597" type="MatMul" version="opset1">
			<data transpose_a="false" transpose_b="true"/>
			<input>
				<port id="0" precision="FP16">
					<dim>1</dim>
					<dim>384</dim>
					<dim>512</dim>
				</port>
				<port id="1" precision="FP16">
					<dim>512</dim>
					<dim>512</dim>
				</port>
			</input>
			<output>
				<port id="2" names="597" precision="FP16">
					<dim>1</dim>
					<dim>384</dim>
					<dim>512</dim>
				</port>
			</output>
		</layer>
		<layer id="357" name="bert.encoder.layer.2.attention.self.key.bias" type="Const" version="opset1">
			<data element_type="f16" offset="74078384" shape="1, 1, 512" size="1024"/>
			<output>
				<port id="0" names="bert.encoder.layer.2.attention.self.key.bias" precision="FP16">
					<dim>1</dim>
					<dim>1</dim>
					<dim>512</dim>
				</port>
			</output>
		</layer>
		<layer id="358" name="598" type="Add" version="opset1">
			<data auto_broadcast="numpy"/>
			<input>
				<port id="0" precision="FP16">
					<dim>1</dim>
					<dim>384</dim>
					<dim>512</dim>
				</port>
				<port id="1" precision="FP16">
					<dim>1</dim>
					<dim>1</dim>
					<dim>512</dim>
				</port>
			</input>
			<output>
				<port id="2" names="598" precision="FP16">
					<dim>1</dim>
					<dim>384</dim>
					<dim>512</dim>
				</port>
			</output>
		</layer>
		<layer id="359" name="618" type="ShapeOf" version="opset3">
			<data output_type="i64"/>
			<input>
				<port id="0" precision="FP16">
					<dim>1</dim>
					<dim>384</dim>
					<dim>512</dim>
				</port>
			</input>
			<output>
				<port id="1" names="618" precision="I64">
					<dim>3</dim>
				</port>
			</output>
		</layer>
		<layer id="360" name="617" type="Const" version="opset1">
			<data element_type="i32" offset="63557668" shape="" size="4"/>
			<output>
				<port id="0" names="617" precision="I32"/>
			</output>
		</layer>
		<layer id="361" name="619/axis" type="Const" version="opset1">
			<data element_type="i64" offset="62509056" shape="" size="8"/>
			<output>
				<port id="0" precision="I64"/>
			</output>
		</layer>
		<layer id="362" name="6192866" type="Gather" version="opset7">
			<data batch_dims="0"/>
			<input>
				<port id="0" precision="I64">
					<dim>3</dim>
				</port>
				<port id="1" precision="I32"/>
				<port id="2" precision="I64"/>
			</input>
			<output>
				<port id="3" names="619" precision="I64"/>
			</output>
		</layer>
		<layer id="363" name="625/Dims" type="Const" version="opset1">
			<data element_type="i64" offset="62509056" shape="1" size="8"/>
			<output>
				<port id="0" precision="I64">
					<dim>1</dim>
				</port>
			</output>
		</layer>
		<layer id="364" name="625/Unsqueeze" type="Unsqueeze" version="opset1">
			<input>
				<port id="0" precision="I64"/>
				<port id="1" precision="I64">
					<dim>1</dim>
				</port>
			</input>
			<output>
				<port id="2" names="625" precision="I64">
					<dim>1</dim>
				</port>
			</output>
		</layer>
		<layer id="365" name="621" type="ShapeOf" version="opset3">
			<data output_type="i64"/>
			<input>
				<port id="0" precision="FP16">
					<dim>1</dim>
					<dim>384</dim>
					<dim>512</dim>
				</port>
			</input>
			<output>
				<port id="1" names="621" precision="I64">
					<dim>3</dim>
				</port>
			</output>
		</layer>
		<layer id="366" name="620" type="Const" version="opset1">
			<data element_type="i32" offset="63557648" shape="" size="4"/>
			<output>
				<port id="0" names="620" precision="I32"/>
			</output>
		</layer>
		<layer id="367" name="622/axis" type="Const" version="opset1">
			<data element_type="i64" offset="62509056" shape="" size="8"/>
			<output>
				<port id="0" precision="I64"/>
			</output>
		</layer>
		<layer id="368" name="6222900" type="Gather" version="opset7">
			<data batch_dims="0"/>
			<input>
				<port id="0" precision="I64">
					<dim>3</dim>
				</port>
				<port id="1" precision="I32"/>
				<port id="2" precision="I64"/>
			</input>
			<output>
				<port id="3" names="622" precision="I64"/>
			</output>
		</layer>
		<layer id="369" name="626/Dims" type="Const" version="opset1">
			<data element_type="i64" offset="62509056" shape="1" size="8"/>
			<output>
				<port id="0" precision="I64">
					<dim>1</dim>
				</port>
			</output>
		</layer>
		<layer id="370" name="626/Unsqueeze" type="Unsqueeze" version="opset1">
			<input>
				<port id="0" precision="I64"/>
				<port id="1" precision="I64">
					<dim>1</dim>
				</port>
			</input>
			<output>
				<port id="2" names="626" precision="I64">
					<dim>1</dim>
				</port>
			</output>
		</layer>
		<layer id="371" name="627/Unsqueeze" type="Const" version="opset1">
			<data element_type="i64" offset="65140784" shape="1" size="8"/>
			<output>
				<port id="0" names="627" precision="I64">
					<dim>1</dim>
				</port>
			</output>
		</layer>
		<layer id="372" name="628/Unsqueeze" type="Const" version="opset1">
			<data element_type="i64" offset="65140792" shape="1" size="8"/>
			<output>
				<port id="0" names="628" precision="I64">
					<dim>1</dim>
				</port>
			</output>
		</layer>
		<layer id="373" name="629" type="Concat" version="opset1">
			<data axis="0"/>
			<input>
				<port id="0" precision="I64">
					<dim>1</dim>
				</port>
				<port id="1" precision="I64">
					<dim>1</dim>
				</port>
				<port id="2" precision="I64">
					<dim>1</dim>
				</port>
				<port id="3" precision="I64">
					<dim>1</dim>
				</port>
			</input>
			<output>
				<port id="4" names="629" precision="I64">
					<dim>4</dim>
				</port>
			</output>
		</layer>
		<layer id="374" name="630" type="Reshape" version="opset1">
			<data special_zero="true"/>
			<input>
				<port id="0" precision="FP16">
					<dim>1</dim>
					<dim>384</dim>
					<dim>512</dim>
				</port>
				<port id="1" precision="I64">
					<dim>4</dim>
				</port>
			</input>
			<output>
				<port id="2" names="630" precision="FP16">
					<dim>1</dim>
					<dim>384</dim>
					<dim>8</dim>
					<dim>64</dim>
				</port>
			</output>
		</layer>
		<layer id="375" name="2019" type="Const" version="opset1">
			<data element_type="i64" offset="65666144" shape="4" size="32"/>
			<output>
				<port id="0" precision="I64">
					<dim>4</dim>
				</port>
			</output>
		</layer>
		<layer id="376" name="646" type="Transpose" version="opset1">
			<input>
				<port id="0" precision="FP16">
					<dim>1</dim>
					<dim>384</dim>
					<dim>8</dim>
					<dim>64</dim>
				</port>
				<port id="1" precision="I64">
					<dim>4</dim>
				</port>
			</input>
			<output>
				<port id="2" precision="FP16">
					<dim>1</dim>
					<dim>8</dim>
					<dim>64</dim>
					<dim>384</dim>
				</port>
			</output>
		</layer>
		<layer id="377" name="649_copy/const26884" type="Const" version="opset1">
			<data element_type="f16" offset="65666176" shape="1, 8, 1, 1" size="16"/>
			<output>
				<port id="0" precision="FP16">
					<dim>1</dim>
					<dim>8</dim>
					<dim>1</dim>
					<dim>1</dim>
				</port>
			</output>
		</layer>
		<layer id="378" name="649_copy" type="Multiply" version="opset1">
			<data auto_broadcast="numpy"/>
			<input>
				<port id="0" precision="FP16">
					<dim>1</dim>
					<dim>8</dim>
					<dim>64</dim>
					<dim>384</dim>
				</port>
				<port id="1" precision="FP16">
					<dim>1</dim>
					<dim>8</dim>
					<dim>1</dim>
					<dim>1</dim>
				</port>
			</input>
			<output>
				<port id="2" names="646" precision="FP16">
					<dim>1</dim>
					<dim>8</dim>
					<dim>64</dim>
					<dim>384</dim>
				</port>
			</output>
		</layer>
		<layer id="379" name="647" type="MatMul" version="opset1">
			<data transpose_a="false" transpose_b="false"/>
			<input>
				<port id="0" precision="FP16">
					<dim>1</dim>
					<dim>8</dim>
					<dim>384</dim>
					<dim>64</dim>
				</port>
				<port id="1" precision="FP16">
					<dim>1</dim>
					<dim>8</dim>
					<dim>64</dim>
					<dim>384</dim>
				</port>
			</input>
			<output>
				<port id="2" names="649" precision="FP16">
					<dim>1</dim>
					<dim>8</dim>
					<dim>384</dim>
					<dim>384</dim>
				</port>
			</output>
		</layer>
		<layer id="380" name="650" type="Add" version="opset1">
			<data auto_broadcast="numpy"/>
			<input>
				<port id="0" precision="FP16">
					<dim>1</dim>
					<dim>8</dim>
					<dim>384</dim>
					<dim>384</dim>
				</port>
				<port id="1" precision="FP16">
					<dim>1</dim>
					<dim>1</dim>
					<dim>1</dim>
					<dim>384</dim>
				</port>
			</input>
			<output>
				<port id="2" names="650" precision="FP16">
					<dim>1</dim>
					<dim>8</dim>
					<dim>384</dim>
					<dim>384</dim>
				</port>
			</output>
		</layer>
		<layer id="381" name="651/FlattenONNX_/input_shape" type="ShapeOf" version="opset3">
			<data output_type="i64"/>
			<input>
				<port id="0" precision="FP16">
					<dim>1</dim>
					<dim>8</dim>
					<dim>384</dim>
					<dim>384</dim>
				</port>
			</input>
			<output>
				<port id="1" precision="I64">
					<dim>4</dim>
				</port>
			</output>
		</layer>
		<layer id="382" name="651/FlattenONNX_/input_shape/Indices" type="Const" version="opset1">
			<data element_type="i32" offset="65666204" shape="3" size="12"/>
			<output>
				<port id="0" precision="I32">
					<dim>3</dim>
				</port>
			</output>
		</layer>
		<layer id="383" name="651/FlattenONNX_/input_shape/Axis" type="Const" version="opset1">
			<data element_type="i64" offset="62509056" shape="" size="8"/>
			<output>
				<port id="0" precision="I64"/>
			</output>
		</layer>
		<layer id="384" name="651/FlattenONNX_/input_shape/Gather" type="Gather" version="opset7">
			<data batch_dims="0"/>
			<input>
				<port id="0" precision="I64">
					<dim>4</dim>
				</port>
				<port id="1" precision="I32">
					<dim>3</dim>
				</port>
				<port id="2" precision="I64"/>
			</input>
			<output>
				<port id="3" precision="I64">
					<dim>3</dim>
				</port>
			</output>
		</layer>
		<layer id="385" name="651/FlattenONNX_/first_dims/value" type="Const" version="opset1">
			<data element_type="i64" offset="62509056" shape="1" size="8"/>
			<output>
				<port id="0" precision="I64">
					<dim>1</dim>
				</port>
			</output>
		</layer>
		<layer id="386" name="651/FlattenONNX_/first_dims" type="ReduceProd" version="opset1">
			<data keep_dims="true"/>
			<input>
				<port id="0" precision="I64">
					<dim>3</dim>
				</port>
				<port id="1" precision="I64">
					<dim>1</dim>
				</port>
			</input>
			<output>
				<port id="2" precision="I64">
					<dim>1</dim>
				</port>
			</output>
		</layer>
		<layer id="387" name="651/FlattenONNX_/second_dims" type="Const" version="opset1">
			<data element_type="i64" offset="63561768" shape="1" size="8"/>
			<output>
				<port id="0" precision="I64">
					<dim>1</dim>
				</port>
			</output>
		</layer>
		<layer id="388" name="651/FlattenONNX_/first_dims/shapes_concat" type="Concat" version="opset1">
			<data axis="0"/>
			<input>
				<port id="0" precision="I64">
					<dim>1</dim>
				</port>
				<port id="1" precision="I64">
					<dim>1</dim>
				</port>
			</input>
			<output>
				<port id="2" precision="I64">
					<dim>2</dim>
				</port>
			</output>
		</layer>
		<layer id="389" name="651/FlattenONNX_/Reshape" type="Reshape" version="opset1">
			<data special_zero="true"/>
			<input>
				<port id="0" precision="FP16">
					<dim>1</dim>
					<dim>8</dim>
					<dim>384</dim>
					<dim>384</dim>
				</port>
				<port id="1" precision="I64">
					<dim>2</dim>
				</port>
			</input>
			<output>
				<port id="2" precision="FP16">
					<dim>3072</dim>
					<dim>384</dim>
				</port>
			</output>
		</layer>
		<layer id="390" name="651/Softmax_" type="SoftMax" version="opset1">
			<data axis="1"/>
			<input>
				<port id="0" precision="FP16">
					<dim>3072</dim>
					<dim>384</dim>
				</port>
			</input>
			<output>
				<port id="1" precision="FP16">
					<dim>3072</dim>
					<dim>384</dim>
				</port>
			</output>
		</layer>
		<layer id="391" name="651/ShapeOf_" type="ShapeOf" version="opset3">
			<data output_type="i64"/>
			<input>
				<port id="0" precision="FP16">
					<dim>1</dim>
					<dim>8</dim>
					<dim>384</dim>
					<dim>384</dim>
				</port>
			</input>
			<output>
				<port id="1" precision="I64">
					<dim>4</dim>
				</port>
			</output>
		</layer>
		<layer id="392" name="651" type="Reshape" version="opset1">
			<data special_zero="true"/>
			<input>
				<port id="0" precision="FP16">
					<dim>3072</dim>
					<dim>384</dim>
				</port>
				<port id="1" precision="I64">
					<dim>4</dim>
				</port>
			</input>
			<output>
				<port id="2" names="651" precision="FP16">
					<dim>1</dim>
					<dim>8</dim>
					<dim>384</dim>
					<dim>384</dim>
				</port>
			</output>
		</layer>
		<layer id="393" name="599" type="Const" version="opset1">
			<data element_type="f16" offset="74079408" shape="512, 512" size="524288"/>
			<output>
				<port id="0" names="599" precision="FP16">
					<dim>512</dim>
					<dim>512</dim>
				</port>
			</output>
		</layer>
		<layer id="394" name="600" type="MatMul" version="opset1">
			<data transpose_a="false" transpose_b="true"/>
			<input>
				<port id="0" precision="FP16">
					<dim>1</dim>
					<dim>384</dim>
					<dim>512</dim>
				</port>
				<port id="1" precision="FP16">
					<dim>512</dim>
					<dim>512</dim>
				</port>
			</input>
			<output>
				<port id="2" names="600" precision="FP16">
					<dim>1</dim>
					<dim>384</dim>
					<dim>512</dim>
				</port>
			</output>
		</layer>
		<layer id="395" name="bert.encoder.layer.2.attention.self.value.bias" type="Const" version="opset1">
			<data element_type="f16" offset="74603696" shape="1, 1, 512" size="1024"/>
			<output>
				<port id="0" names="bert.encoder.layer.2.attention.self.value.bias" precision="FP16">
					<dim>1</dim>
					<dim>1</dim>
					<dim>512</dim>
				</port>
			</output>
		</layer>
		<layer id="396" name="601" type="Add" version="opset1">
			<data auto_broadcast="numpy"/>
			<input>
				<port id="0" precision="FP16">
					<dim>1</dim>
					<dim>384</dim>
					<dim>512</dim>
				</port>
				<port id="1" precision="FP16">
					<dim>1</dim>
					<dim>1</dim>
					<dim>512</dim>
				</port>
			</input>
			<output>
				<port id="2" names="601" precision="FP16">
					<dim>1</dim>
					<dim>384</dim>
					<dim>512</dim>
				</port>
			</output>
		</layer>
		<layer id="397" name="632" type="ShapeOf" version="opset3">
			<data output_type="i64"/>
			<input>
				<port id="0" precision="FP16">
					<dim>1</dim>
					<dim>384</dim>
					<dim>512</dim>
				</port>
			</input>
			<output>
				<port id="1" names="632" precision="I64">
					<dim>3</dim>
				</port>
			</output>
		</layer>
		<layer id="398" name="631" type="Const" version="opset1">
			<data element_type="i32" offset="63557668" shape="" size="4"/>
			<output>
				<port id="0" names="631" precision="I32"/>
			</output>
		</layer>
		<layer id="399" name="633/axis" type="Const" version="opset1">
			<data element_type="i64" offset="62509056" shape="" size="8"/>
			<output>
				<port id="0" precision="I64"/>
			</output>
		</layer>
		<layer id="400" name="6332986" type="Gather" version="opset7">
			<data batch_dims="0"/>
			<input>
				<port id="0" precision="I64">
					<dim>3</dim>
				</port>
				<port id="1" precision="I32"/>
				<port id="2" precision="I64"/>
			</input>
			<output>
				<port id="3" names="633" precision="I64"/>
			</output>
		</layer>
		<layer id="401" name="639/Dims" type="Const" version="opset1">
			<data element_type="i64" offset="62509056" shape="1" size="8"/>
			<output>
				<port id="0" precision="I64">
					<dim>1</dim>
				</port>
			</output>
		</layer>
		<layer id="402" name="639/Unsqueeze" type="Unsqueeze" version="opset1">
			<input>
				<port id="0" precision="I64"/>
				<port id="1" precision="I64">
					<dim>1</dim>
				</port>
			</input>
			<output>
				<port id="2" names="639" precision="I64">
					<dim>1</dim>
				</port>
			</output>
		</layer>
		<layer id="403" name="635" type="ShapeOf" version="opset3">
			<data output_type="i64"/>
			<input>
				<port id="0" precision="FP16">
					<dim>1</dim>
					<dim>384</dim>
					<dim>512</dim>
				</port>
			</input>
			<output>
				<port id="1" names="635" precision="I64">
					<dim>3</dim>
				</port>
			</output>
		</layer>
		<layer id="404" name="634" type="Const" version="opset1">
			<data element_type="i32" offset="63557648" shape="" size="4"/>
			<output>
				<port id="0" names="634" precision="I32"/>
			</output>
		</layer>
		<layer id="405" name="636/axis" type="Const" version="opset1">
			<data element_type="i64" offset="62509056" shape="" size="8"/>
			<output>
				<port id="0" precision="I64"/>
			</output>
		</layer>
		<layer id="406" name="6362862" type="Gather" version="opset7">
			<data batch_dims="0"/>
			<input>
				<port id="0" precision="I64">
					<dim>3</dim>
				</port>
				<port id="1" precision="I32"/>
				<port id="2" precision="I64"/>
			</input>
			<output>
				<port id="3" names="636" precision="I64"/>
			</output>
		</layer>
		<layer id="407" name="640/Dims" type="Const" version="opset1">
			<data element_type="i64" offset="62509056" shape="1" size="8"/>
			<output>
				<port id="0" precision="I64">
					<dim>1</dim>
				</port>
			</output>
		</layer>
		<layer id="408" name="640/Unsqueeze" type="Unsqueeze" version="opset1">
			<input>
				<port id="0" precision="I64"/>
				<port id="1" precision="I64">
					<dim>1</dim>
				</port>
			</input>
			<output>
				<port id="2" names="640" precision="I64">
					<dim>1</dim>
				</port>
			</output>
		</layer>
		<layer id="409" name="641/Unsqueeze" type="Const" version="opset1">
			<data element_type="i64" offset="65140784" shape="1" size="8"/>
			<output>
				<port id="0" names="641" precision="I64">
					<dim>1</dim>
				</port>
			</output>
		</layer>
		<layer id="410" name="642/Unsqueeze" type="Const" version="opset1">
			<data element_type="i64" offset="65140792" shape="1" size="8"/>
			<output>
				<port id="0" names="642" precision="I64">
					<dim>1</dim>
				</port>
			</output>
		</layer>
		<layer id="411" name="643" type="Concat" version="opset1">
			<data axis="0"/>
			<input>
				<port id="0" precision="I64">
					<dim>1</dim>
				</port>
				<port id="1" precision="I64">
					<dim>1</dim>
				</port>
				<port id="2" precision="I64">
					<dim>1</dim>
				</port>
				<port id="3" precision="I64">
					<dim>1</dim>
				</port>
			</input>
			<output>
				<port id="4" names="643" precision="I64">
					<dim>4</dim>
				</port>
			</output>
		</layer>
		<layer id="412" name="644" type="Reshape" version="opset1">
			<data special_zero="true"/>
			<input>
				<port id="0" precision="FP16">
					<dim>1</dim>
					<dim>384</dim>
					<dim>512</dim>
				</port>
				<port id="1" precision="I64">
					<dim>4</dim>
				</port>
			</input>
			<output>
				<port id="2" names="644" precision="FP16">
					<dim>1</dim>
					<dim>384</dim>
					<dim>8</dim>
					<dim>64</dim>
				</port>
			</output>
		</layer>
		<layer id="413" name="1967" type="Const" version="opset1">
			<data element_type="i64" offset="65140800" shape="4" size="32"/>
			<output>
				<port id="0" precision="I64">
					<dim>4</dim>
				</port>
			</output>
		</layer>
		<layer id="414" name="645" type="Transpose" version="opset1">
			<input>
				<port id="0" precision="FP16">
					<dim>1</dim>
					<dim>384</dim>
					<dim>8</dim>
					<dim>64</dim>
				</port>
				<port id="1" precision="I64">
					<dim>4</dim>
				</port>
			</input>
			<output>
				<port id="2" names="645" precision="FP16">
					<dim>1</dim>
					<dim>8</dim>
					<dim>384</dim>
					<dim>64</dim>
				</port>
			</output>
		</layer>
		<layer id="415" name="652" type="MatMul" version="opset1">
			<data transpose_a="false" transpose_b="false"/>
			<input>
				<port id="0" precision="FP16">
					<dim>1</dim>
					<dim>8</dim>
					<dim>384</dim>
					<dim>384</dim>
				</port>
				<port id="1" precision="FP16">
					<dim>1</dim>
					<dim>8</dim>
					<dim>384</dim>
					<dim>64</dim>
				</port>
			</input>
			<output>
				<port id="2" names="652" precision="FP16">
					<dim>1</dim>
					<dim>8</dim>
					<dim>384</dim>
					<dim>64</dim>
				</port>
			</output>
		</layer>
		<layer id="416" name="1976" type="Const" version="opset1">
			<data element_type="i64" offset="65140800" shape="4" size="32"/>
			<output>
				<port id="0" precision="I64">
					<dim>4</dim>
				</port>
			</output>
		</layer>
		<layer id="417" name="653" type="Transpose" version="opset1">
			<input>
				<port id="0" precision="FP16">
					<dim>1</dim>
					<dim>8</dim>
					<dim>384</dim>
					<dim>64</dim>
				</port>
				<port id="1" precision="I64">
					<dim>4</dim>
				</port>
			</input>
			<output>
				<port id="2" names="653" precision="FP16">
					<dim>1</dim>
					<dim>384</dim>
					<dim>8</dim>
					<dim>64</dim>
				</port>
			</output>
		</layer>
		<layer id="418" name="655" type="ShapeOf" version="opset3">
			<data output_type="i64"/>
			<input>
				<port id="0" precision="FP16">
					<dim>1</dim>
					<dim>384</dim>
					<dim>8</dim>
					<dim>64</dim>
				</port>
			</input>
			<output>
				<port id="1" names="655" precision="I64">
					<dim>4</dim>
				</port>
			</output>
		</layer>
		<layer id="419" name="654" type="Const" version="opset1">
			<data element_type="i32" offset="63557668" shape="" size="4"/>
			<output>
				<port id="0" names="654" precision="I32"/>
			</output>
		</layer>
		<layer id="420" name="656/axis" type="Const" version="opset1">
			<data element_type="i64" offset="62509056" shape="" size="8"/>
			<output>
				<port id="0" precision="I64"/>
			</output>
		</layer>
		<layer id="421" name="6562936" type="Gather" version="opset7">
			<data batch_dims="0"/>
			<input>
				<port id="0" precision="I64">
					<dim>4</dim>
				</port>
				<port id="1" precision="I32"/>
				<port id="2" precision="I64"/>
			</input>
			<output>
				<port id="3" names="656" precision="I64"/>
			</output>
		</layer>
		<layer id="422" name="661/Dims" type="Const" version="opset1">
			<data element_type="i64" offset="62509056" shape="1" size="8"/>
			<output>
				<port id="0" precision="I64">
					<dim>1</dim>
				</port>
			</output>
		</layer>
		<layer id="423" name="661/Unsqueeze" type="Unsqueeze" version="opset1">
			<input>
				<port id="0" precision="I64"/>
				<port id="1" precision="I64">
					<dim>1</dim>
				</port>
			</input>
			<output>
				<port id="2" names="661" precision="I64">
					<dim>1</dim>
				</port>
			</output>
		</layer>
		<layer id="424" name="658" type="ShapeOf" version="opset3">
			<data output_type="i64"/>
			<input>
				<port id="0" precision="FP16">
					<dim>1</dim>
					<dim>384</dim>
					<dim>8</dim>
					<dim>64</dim>
				</port>
			</input>
			<output>
				<port id="1" names="658" precision="I64">
					<dim>4</dim>
				</port>
			</output>
		</layer>
		<layer id="425" name="657" type="Const" version="opset1">
			<data element_type="i32" offset="63557648" shape="" size="4"/>
			<output>
				<port id="0" names="657" precision="I32"/>
			</output>
		</layer>
		<layer id="426" name="659/axis" type="Const" version="opset1">
			<data element_type="i64" offset="62509056" shape="" size="8"/>
			<output>
				<port id="0" precision="I64"/>
			</output>
		</layer>
		<layer id="427" name="6592990" type="Gather" version="opset7">
			<data batch_dims="0"/>
			<input>
				<port id="0" precision="I64">
					<dim>4</dim>
				</port>
				<port id="1" precision="I32"/>
				<port id="2" precision="I64"/>
			</input>
			<output>
				<port id="3" names="659" precision="I64"/>
			</output>
		</layer>
		<layer id="428" name="662/Dims" type="Const" version="opset1">
			<data element_type="i64" offset="62509056" shape="1" size="8"/>
			<output>
				<port id="0" precision="I64">
					<dim>1</dim>
				</port>
			</output>
		</layer>
		<layer id="429" name="662/Unsqueeze" type="Unsqueeze" version="opset1">
			<input>
				<port id="0" precision="I64"/>
				<port id="1" precision="I64">
					<dim>1</dim>
				</port>
			</input>
			<output>
				<port id="2" names="662" precision="I64">
					<dim>1</dim>
				</port>
			</output>
		</layer>
		<layer id="430" name="663/Unsqueeze" type="Const" version="opset1">
			<data element_type="i64" offset="66191528" shape="1" size="8"/>
			<output>
				<port id="0" names="663" precision="I64">
					<dim>1</dim>
				</port>
			</output>
		</layer>
		<layer id="431" name="664" type="Concat" version="opset1">
			<data axis="0"/>
			<input>
				<port id="0" precision="I64">
					<dim>1</dim>
				</port>
				<port id="1" precision="I64">
					<dim>1</dim>
				</port>
				<port id="2" precision="I64">
					<dim>1</dim>
				</port>
			</input>
			<output>
				<port id="3" names="664" precision="I64">
					<dim>3</dim>
				</port>
			</output>
		</layer>
		<layer id="432" name="665" type="Reshape" version="opset1">
			<data special_zero="true"/>
			<input>
				<port id="0" precision="FP16">
					<dim>1</dim>
					<dim>384</dim>
					<dim>8</dim>
					<dim>64</dim>
				</port>
				<port id="1" precision="I64">
					<dim>3</dim>
				</port>
			</input>
			<output>
				<port id="2" names="665" precision="FP16">
					<dim>1</dim>
					<dim>384</dim>
					<dim>512</dim>
				</port>
			</output>
		</layer>
		<layer id="433" name="666" type="Const" version="opset1">
			<data element_type="f16" offset="74604720" shape="512, 512" size="524288"/>
			<output>
				<port id="0" names="666" precision="FP16">
					<dim>512</dim>
					<dim>512</dim>
				</port>
			</output>
		</layer>
		<layer id="434" name="667" type="MatMul" version="opset1">
			<data transpose_a="false" transpose_b="true"/>
			<input>
				<port id="0" precision="FP16">
					<dim>1</dim>
					<dim>384</dim>
					<dim>512</dim>
				</port>
				<port id="1" precision="FP16">
					<dim>512</dim>
					<dim>512</dim>
				</port>
			</input>
			<output>
				<port id="2" names="667" precision="FP16">
					<dim>1</dim>
					<dim>384</dim>
					<dim>512</dim>
				</port>
			</output>
		</layer>
		<layer id="435" name="bert.encoder.layer.2.attention.output.dense.bias" type="Const" version="opset1">
			<data element_type="f16" offset="75129008" shape="1, 1, 512" size="1024"/>
			<output>
				<port id="0" names="bert.encoder.layer.2.attention.output.dense.bias" precision="FP16">
					<dim>1</dim>
					<dim>1</dim>
					<dim>512</dim>
				</port>
			</output>
		</layer>
		<layer id="436" name="668" type="Add" version="opset1">
			<data auto_broadcast="numpy"/>
			<input>
				<port id="0" precision="FP16">
					<dim>1</dim>
					<dim>384</dim>
					<dim>512</dim>
				</port>
				<port id="1" precision="FP16">
					<dim>1</dim>
					<dim>1</dim>
					<dim>512</dim>
				</port>
			</input>
			<output>
				<port id="2" names="668" precision="FP16">
					<dim>1</dim>
					<dim>384</dim>
					<dim>512</dim>
				</port>
			</output>
		</layer>
		<layer id="437" name="669" type="Add" version="opset1">
			<data auto_broadcast="numpy"/>
			<input>
				<port id="0" precision="FP16">
					<dim>1</dim>
					<dim>384</dim>
					<dim>512</dim>
				</port>
				<port id="1" precision="FP16">
					<dim>1</dim>
					<dim>384</dim>
					<dim>512</dim>
				</port>
			</input>
			<output>
				<port id="2" names="669" precision="FP16">
					<dim>1</dim>
					<dim>384</dim>
					<dim>512</dim>
				</port>
			</output>
		</layer>
		<layer id="438" name="2666_input_port_1/value" type="Const" version="opset1">
			<data element_type="i64" offset="63561768" shape="1" size="8"/>
			<output>
				<port id="0" precision="I64">
					<dim>1</dim>
				</port>
			</output>
		</layer>
		<layer id="439" name="678" type="MVN" version="opset6">
			<data eps="9.999999960041972e-13" eps_mode="INSIDE_SQRT" normalize_variance="true"/>
			<input>
				<port id="0" precision="FP16">
					<dim>1</dim>
					<dim>384</dim>
					<dim>512</dim>
				</port>
				<port id="1" precision="I64">
					<dim>1</dim>
				</port>
			</input>
			<output>
				<port id="2" names="678" precision="FP16">
					<dim>1</dim>
					<dim>384</dim>
					<dim>512</dim>
				</port>
			</output>
		</layer>
		<layer id="440" name="bert.encoder.layer.2.attention.output.LayerNorm.weight" type="Const" version="opset1">
			<data element_type="f16" offset="75130032" shape="1, 1, 512" size="1024"/>
			<output>
				<port id="0" names="bert.encoder.layer.2.attention.output.LayerNorm.weight" precision="FP16">
					<dim>1</dim>
					<dim>1</dim>
					<dim>512</dim>
				</port>
			</output>
		</layer>
		<layer id="441" name="679" type="Multiply" version="opset1">
…
		<edge from-layer="1096" from-port="4" to-layer="1097" to-port="1"/>
		<edge from-layer="1097" from-port="2" to-layer="1099" to-port="0"/>
		<edge from-layer="1098" from-port="0" to-layer="1099" to-port="1"/>
		<edge from-layer="1099" from-port="2" to-layer="1100" to-port="1"/>
		<edge from-layer="1100" from-port="2" to-layer="1102" to-port="0"/>
		<edge from-layer="1101" from-port="0" to-layer="1102" to-port="1"/>
		<edge from-layer="1102" from-port="2" to-layer="1109" to-port="0"/>
		<edge from-layer="1102" from-port="2" to-layer="1103" to-port="0"/>
		<edge from-layer="1102" from-port="2" to-layer="1117" to-port="0"/>
		<edge from-layer="1103" from-port="1" to-layer="1106" to-port="0"/>
		<edge from-layer="1104" from-port="0" to-layer="1106" to-port="1"/>
		<edge from-layer="1105" from-port="0" to-layer="1106" to-port="2"/>
		<edge from-layer="1106" from-port="3" to-layer="1108" to-port="0"/>
		<edge from-layer="1107" from-port="0" to-layer="1108" to-port="1"/>
		<edge from-layer="1108" from-port="2" to-layer="1116" to-port="0"/>
		<edge from-layer="1109" from-port="1" to-layer="1112" to-port="0"/>
		<edge from-layer="1110" from-port="0" to-layer="1112" to-port="1"/>
		<edge from-layer="1111" from-port="0" to-layer="1112" to-port="2"/>
		<edge from-layer="1112" from-port="3" to-layer="1114" to-port="0"/>
		<edge from-layer="1113" from-port="0" to-layer="1114" to-port="1"/>
		<edge from-layer="1114" from-port="2" to-layer="1116" to-port="1"/>
		<edge from-layer="1115" from-port="0" to-layer="1116" to-port="2"/>
		<edge from-layer="1116" from-port="3" to-layer="1117" to-port="1"/>
		<edge from-layer="1117" from-port="2" to-layer="1119" to-port="0"/>
		<edge from-layer="1118" from-port="0" to-layer="1119" to-port="1"/>
		<edge from-layer="1119" from-port="2" to-layer="1121" to-port="0"/>
		<edge from-layer="1120" from-port="0" to-layer="1121" to-port="1"/>
		<edge from-layer="1121" from-port="2" to-layer="1122" to-port="0"/>
		<edge from-layer="1122" from-port="2" to-layer="1124" to-port="0"/>
		<edge from-layer="1123" from-port="0" to-layer="1124" to-port="1"/>
		<edge from-layer="1124" from-port="2" to-layer="1126" to-port="0"/>
		<edge from-layer="1125" from-port="0" to-layer="1126" to-port="1"/>
		<edge from-layer="1126" from-port="2" to-layer="1128" to-port="0"/>
		<edge from-layer="1127" from-port="0" to-layer="1128" to-port="1"/>
		<edge from-layer="1128" from-port="2" to-layer="1130" to-port="0"/>
		<edge from-layer="1128" from-port="2" to-layer="1148" to-port="1"/>
		<edge from-layer="1129" from-port="0" to-layer="1130" to-port="1"/>
		<edge from-layer="1130" from-port="2" to-layer="1132" to-port="0"/>
		<edge from-layer="1131" from-port="0" to-layer="1132" to-port="1"/>
		<edge from-layer="1132" from-port="2" to-layer="1133" to-port="0"/>
		<edge from-layer="1133" from-port="1" to-layer="1135" to-port="0"/>
		<edge from-layer="1134" from-port="0" to-layer="1135" to-port="1"/>
		<edge from-layer="1135" from-port="2" to-layer="1137" to-port="0"/>
		<edge from-layer="1136" from-port="0" to-layer="1137" to-port="1"/>
		<edge from-layer="1137" from-port="2" to-layer="1138" to-port="0"/>
		<edge from-layer="1138" from-port="1" to-layer="1140" to-port="0"/>
		<edge from-layer="1139" from-port="0" to-layer="1140" to-port="1"/>
		<edge from-layer="1140" from-port="2" to-layer="1142" to-port="0"/>
		<edge from-layer="1141" from-port="0" to-layer="1142" to-port="1"/>
		<edge from-layer="1142" from-port="2" to-layer="1143" to-port="0"/>
		<edge from-layer="1143" from-port="1" to-layer="1145" to-port="0"/>
		<edge from-layer="1144" from-port="0" to-layer="1145" to-port="1"/>
		<edge from-layer="1145" from-port="2" to-layer="1147" to-port="0"/>
		<edge from-layer="1146" from-port="0" to-layer="1147" to-port="1"/>
		<edge from-layer="1147" from-port="2" to-layer="1148" to-port="0"/>
		<edge from-layer="1148" from-port="2" to-layer="1150" to-port="0"/>
		<edge from-layer="1149" from-port="0" to-layer="1150" to-port="1"/>
		<edge from-layer="1150" from-port="2" to-layer="1152" to-port="0"/>
		<edge from-layer="1151" from-port="0" to-layer="1152" to-port="1"/>
		<edge from-layer="1152" from-port="2" to-layer="1154" to-port="0"/>
		<edge from-layer="1153" from-port="0" to-layer="1154" to-port="1"/>
		<edge from-layer="1154" from-port="2" to-layer="1156" to-port="0"/>
		<edge from-layer="1154" from-port="2" to-layer="1259" to-port="1"/>
		<edge from-layer="1154" from-port="2" to-layer="1216" to-port="0"/>
		<edge from-layer="1154" from-port="2" to-layer="1178" to-port="0"/>
		<edge from-layer="1155" from-port="0" to-layer="1156" to-port="1"/>
		<edge from-layer="1156" from-port="2" to-layer="1158" to-port="0"/>
		<edge from-layer="1157" from-port="0" to-layer="1158" to-port="1"/>
		<edge from-layer="1158" from-port="2" to-layer="1159" to-port="0"/>
		<edge from-layer="1158" from-port="2" to-layer="1165" to-port="0"/>
		<edge from-layer="1158" from-port="2" to-layer="1174" to-port="0"/>
		<edge from-layer="1159" from-port="1" to-layer="1162" to-port="0"/>
		<edge from-layer="1160" from-port="0" to-layer="1162" to-port="1"/>
		<edge from-layer="1161" from-port="0" to-layer="1162" to-port="2"/>
		<edge from-layer="1162" from-port="3" to-layer="1164" to-port="0"/>
		<edge from-layer="1163" from-port="0" to-layer="1164" to-port="1"/>
		<edge from-layer="1164" from-port="2" to-layer="1173" to-port="0"/>
		<edge from-layer="1165" from-port="1" to-layer="1168" to-port="0"/>
		<edge from-layer="1166" from-port="0" to-layer="1168" to-port="1"/>
		<edge from-layer="1167" from-port="0" to-layer="1168" to-port="2"/>
		<edge from-layer="1168" from-port="3" to-layer="1170" to-port="0"/>
		<edge from-layer="1169" from-port="0" to-layer="1170" to-port="1"/>
		<edge from-layer="1170" from-port="2" to-layer="1173" to-port="1"/>
		<edge from-layer="1171" from-port="0" to-layer="1173" to-port="2"/>
		<edge from-layer="1172" from-port="0" to-layer="1173" to-port="3"/>
		<edge from-layer="1173" from-port="4" to-layer="1174" to-port="1"/>
		<edge from-layer="1174" from-port="2" to-layer="1176" to-port="0"/>
		<edge from-layer="1175" from-port="0" to-layer="1176" to-port="1"/>
		<edge from-layer="1176" from-port="2" to-layer="1201" to-port="0"/>
		<edge from-layer="1177" from-port="0" to-layer="1178" to-port="1"/>
		<edge from-layer="1178" from-port="2" to-layer="1180" to-port="0"/>
		<edge from-layer="1179" from-port="0" to-layer="1180" to-port="1"/>
		<edge from-layer="1180" from-port="2" to-layer="1181" to-port="0"/>
		<edge from-layer="1180" from-port="2" to-layer="1196" to-port="0"/>
		<edge from-layer="1180" from-port="2" to-layer="1187" to-port="0"/>
		<edge from-layer="1181" from-port="1" to-layer="1184" to-port="0"/>
		<edge from-layer="1182" from-port="0" to-layer="1184" to-port="1"/>
		<edge from-layer="1183" from-port="0" to-layer="1184" to-port="2"/>
		<edge from-layer="1184" from-port="3" to-layer="1186" to-port="0"/>
		<edge from-layer="1185" from-port="0" to-layer="1186" to-port="1"/>
		<edge from-layer="1186" from-port="2" to-layer="1195" to-port="0"/>
		<edge from-layer="1187" from-port="1" to-layer="1190" to-port="0"/>
		<edge from-layer="1188" from-port="0" to-layer="1190" to-port="1"/>
		<edge from-layer="1189" from-port="0" to-layer="1190" to-port="2"/>
		<edge from-layer="1190" from-port="3" to-layer="1192" to-port="0"/>
		<edge from-layer="1191" from-port="0" to-layer="1192" to-port="1"/>
		<edge from-layer="1192" from-port="2" to-layer="1195" to-port="1"/>
		<edge from-layer="1193" from-port="0" to-layer="1195" to-port="2"/>
		<edge from-layer="1194" from-port="0" to-layer="1195" to-port="3"/>
		<edge from-layer="1195" from-port="4" to-layer="1196" to-port="1"/>
		<edge from-layer="1196" from-port="2" to-layer="1198" to-port="0"/>
		<edge from-layer="1197" from-port="0" to-layer="1198" to-port="1"/>
		<edge from-layer="1198" from-port="2" to-layer="1200" to-port="0"/>
		<edge from-layer="1199" from-port="0" to-layer="1200" to-port="1"/>
		<edge from-layer="1200" from-port="2" to-layer="1201" to-port="1"/>
		<edge from-layer="1201" from-port="2" to-layer="1202" to-port="0"/>
		<edge from-layer="1202" from-port="2" to-layer="1203" to-port="0"/>
		<edge from-layer="1202" from-port="2" to-layer="1213" to-port="0"/>
		<edge from-layer="1202" from-port="2" to-layer="1211" to-port="0"/>
		<edge from-layer="1203" from-port="1" to-layer="1206" to-port="0"/>
		<edge from-layer="1204" from-port="0" to-layer="1206" to-port="1"/>
		<edge from-layer="1205" from-port="0" to-layer="1206" to-port="2"/>
		<edge from-layer="1206" from-port="3" to-layer="1208" to-port="0"/>
		<edge from-layer="1207" from-port="0" to-layer="1208" to-port="1"/>
		<edge from-layer="1208" from-port="2" to-layer="1210" to-port="0"/>
		<edge from-layer="1209" from-port="0" to-layer="1210" to-port="1"/>
		<edge from-layer="1210" from-port="2" to-layer="1211" to-port="1"/>
		<edge from-layer="1211" from-port="2" to-layer="1212" to-port="0"/>
		<edge from-layer="1212" from-port="1" to-layer="1214" to-port="0"/>
		<edge from-layer="1213" from-port="1" to-layer="1214" to-port="1"/>
		<edge from-layer="1214" from-port="2" to-layer="1237" to-port="0"/>
		<edge from-layer="1215" from-port="0" to-layer="1216" to-port="1"/>
		<edge from-layer="1216" from-port="2" to-layer="1218" to-port="0"/>
		<edge from-layer="1217" from-port="0" to-layer="1218" to-port="1"/>
		<edge from-layer="1218" from-port="2" to-layer="1225" to-port="0"/>
		<edge from-layer="1218" from-port="2" to-layer="1219" to-port="0"/>
		<edge from-layer="1218" from-port="2" to-layer="1234" to-port="0"/>
		<edge from-layer="1219" from-port="1" to-layer="1222" to-port="0"/>
		<edge from-layer="1220" from-port="0" to-layer="1222" to-port="1"/>
		<edge from-layer="1221" from-port="0" to-layer="1222" to-port="2"/>
		<edge from-layer="1222" from-port="3" to-layer="1224" to-port="0"/>
		<edge from-layer="1223" from-port="0" to-layer="1224" to-port="1"/>
		<edge from-layer="1224" from-port="2" to-layer="1233" to-port="0"/>
		<edge from-layer="1225" from-port="1" to-layer="1228" to-port="0"/>
		<edge from-layer="1226" from-port="0" to-layer="1228" to-port="1"/>
		<edge from-layer="1227" from-port="0" to-layer="1228" to-port="2"/>
		<edge from-layer="1228" from-port="3" to-layer="1230" to-port="0"/>
		<edge from-layer="1229" from-port="0" to-layer="1230" to-port="1"/>
		<edge from-layer="1230" from-port="2" to-layer="1233" to-port="1"/>
		<edge from-layer="1231" from-port="0" to-layer="1233" to-port="2"/>
		<edge from-layer="1232" from-port="0" to-layer="1233" to-port="3"/>
		<edge from-layer="1233" from-port="4" to-layer="1234" to-port="1"/>
		<edge from-layer="1234" from-port="2" to-layer="1236" to-port="0"/>
		<edge from-layer="1235" from-port="0" to-layer="1236" to-port="1"/>
		<edge from-layer="1236" from-port="2" to-layer="1237" to-port="1"/>
		<edge from-layer="1237" from-port="2" to-layer="1239" to-port="0"/>
		<edge from-layer="1238" from-port="0" to-layer="1239" to-port="1"/>
		<edge from-layer="1239" from-port="2" to-layer="1240" to-port="0"/>
		<edge from-layer="1239" from-port="2" to-layer="1246" to-port="0"/>
		<edge from-layer="1239" from-port="2" to-layer="1254" to-port="0"/>
		<edge from-layer="1240" from-port="1" to-layer="1243" to-port="0"/>
		<edge from-layer="1241" from-port="0" to-layer="1243" to-port="1"/>
		<edge from-layer="1242" from-port="0" to-layer="1243" to-port="2"/>
		<edge from-layer="1243" from-port="3" to-layer="1245" to-port="0"/>
		<edge from-layer="1244" from-port="0" to-layer="1245" to-port="1"/>
		<edge from-layer="1245" from-port="2" to-layer="1253" to-port="0"/>
		<edge from-layer="1246" from-port="1" to-layer="1249" to-port="0"/>
		<edge from-layer="1247" from-port="0" to-layer="1249" to-port="1"/>
		<edge from-layer="1248" from-port="0" to-layer="1249" to-port="2"/>
		<edge from-layer="1249" from-port="3" to-layer="1251" to-port="0"/>
		<edge from-layer="1250" from-port="0" to-layer="1251" to-port="1"/>
		<edge from-layer="1251" from-port="2" to-layer="1253" to-port="1"/>
		<edge from-layer="1252" from-port="0" to-layer="1253" to-port="2"/>
		<edge from-layer="1253" from-port="3" to-layer="1254" to-port="1"/>
		<edge from-layer="1254" from-port="2" to-layer="1256" to-port="0"/>
		<edge from-layer="1255" from-port="0" to-layer="1256" to-port="1"/>
		<edge from-layer="1256" from-port="2" to-layer="1258" to-port="0"/>
		<edge from-layer="1257" from-port="0" to-layer="1258" to-port="1"/>
		<edge from-layer="1258" from-port="2" to-layer="1259" to-port="0"/>
		<edge from-layer="1259" from-port="2" to-layer="1261" to-port="0"/>
		<edge from-layer="1260" from-port="0" to-layer="1261" to-port="1"/>
		<edge from-layer="1261" from-port="2" to-layer="1263" to-port="0"/>
		<edge from-layer="1262" from-port="0" to-layer="1263" to-port="1"/>
		<edge from-layer="1263" from-port="2" to-layer="1265" to-port="0"/>
		<edge from-layer="1264" from-port="0" to-layer="1265" to-port="1"/>
		<edge from-layer="1265" from-port="2" to-layer="1285" to-port="1"/>
		<edge from-layer="1265" from-port="2" to-layer="1267" to-port="0"/>
		<edge from-layer="1266" from-port="0" to-layer="1267" to-port="1"/>
		<edge from-layer="1267" from-port="2" to-layer="1269" to-port="0"/>
		<edge from-layer="1268" from-port="0" to-layer="1269" to-port="1"/>
		<edge from-layer="1269" from-port="2" to-layer="1270" to-port="0"/>
		<edge from-layer="1270" from-port="1" to-layer="1272" to-port="0"/>
		<edge from-layer="1271" from-port="0" to-layer="1272" to-port="1"/>
		<edge from-layer="1272" from-port="2" to-layer="1274" to-port="0"/>
		<edge from-layer="1273" from-port="0" to-layer="1274" to-port="1"/>
		<edge from-layer="1274" from-port="2" to-layer="1275" to-port="0"/>
		<edge from-layer="1275" from-port="1" to-layer="1277" to-port="0"/>
		<edge from-layer="1276" from-port="0" to-layer="1277" to-port="1"/>
		<edge from-layer="1277" from-port="2" to-layer="1279" to-port="0"/>
		<edge from-layer="1278" from-port="0" to-layer="1279" to-port="1"/>
		<edge from-layer="1279" from-port="2" to-layer="1280" to-port="0"/>
		<edge from-layer="1280" from-port="1" to-layer="1282" to-port="0"/>
		<edge from-layer="1281" from-port="0" to-layer="1282" to-port="1"/>
		<edge from-layer="1282" from-port="2" to-layer="1284" to-port="0"/>
		<edge from-layer="1283" from-port="0" to-layer="1284" to-port="1"/>
		<edge from-layer="1284" from-port="2" to-layer="1285" to-port="0"/>
		<edge from-layer="1285" from-port="2" to-layer="1287" to-port="0"/>
		<edge from-layer="1286" from-port="0" to-layer="1287" to-port="1"/>
		<edge from-layer="1287" from-port="2" to-layer="1289" to-port="0"/>
		<edge from-layer="1288" from-port="0" to-layer="1289" to-port="1"/>
		<edge from-layer="1289" from-port="2" to-layer="1291" to-port="0"/>
		<edge from-layer="1290" from-port="0" to-layer="1291" to-port="1"/>
		<edge from-layer="1291" from-port="2" to-layer="1293" to-port="0"/>
		<edge from-layer="1291" from-port="2" to-layer="1396" to-port="1"/>
		<edge from-layer="1291" from-port="2" to-layer="1353" to-port="0"/>
		<edge from-layer="1291" from-port="2" to-layer="1315" to-port="0"/>
		<edge from-layer="1292" from-port="0" to-layer="1293" to-port="1"/>
		<edge from-layer="1293" from-port="2" to-layer="1295" to-port="0"/>
		<edge from-layer="1294" from-port="0" to-layer="1295" to-port="1"/>
		<edge from-layer="1295" from-port="2" to-layer="1302" to-port="0"/>
		<edge from-layer="1295" from-port="2" to-layer="1296" to-port="0"/>
		<edge from-layer="1295" from-port="2" to-layer="1311" to-port="0"/>
		<edge from-layer="1296" from-port="1" to-layer="1299" to-port="0"/>
		<edge from-layer="1297" from-port="0" to-layer="1299" to-port="1"/>
		<edge from-layer="1298" from-port="0" to-layer="1299" to-port="2"/>
		<edge from-layer="1299" from-port="3" to-layer="1301" to-port="0"/>
		<edge from-layer="1300" from-port="0" to-layer="1301" to-port="1"/>
		<edge from-layer="1301" from-port="2" to-layer="1310" to-port="0"/>
		<edge from-layer="1302" from-port="1" to-layer="1305" to-port="0"/>
		<edge from-layer="1303" from-port="0" to-layer="1305" to-port="1"/>
		<edge from-layer="1304" from-port="0" to-layer="1305" to-port="2"/>
		<edge from-layer="1305" from-port="3" to-layer="1307" to-port="0"/>
		<edge from-layer="1306" from-port="0" to-layer="1307" to-port="1"/>
		<edge from-layer="1307" from-port="2" to-layer="1310" to-port="1"/>
		<edge from-layer="1308" from-port="0" to-layer="1310" to-port="2"/>
		<edge from-layer="1309" from-port="0" to-layer="1310" to-port="3"/>
		<edge from-layer="1310" from-port="4" to-layer="1311" to-port="1"/>
		<edge from-layer="1311" from-port="2" to-layer="1313" to-port="0"/>
		<edge from-layer="1312" from-port="0" to-layer="1313" to-port="1"/>
		<edge from-layer="1313" from-port="2" to-layer="1338" to-port="0"/>
		<edge from-layer="1314" from-port="0" to-layer="1315" to-port="1"/>
		<edge from-layer="1315" from-port="2" to-layer="1317" to-port="0"/>
		<edge from-layer="1316" from-port="0" to-layer="1317" to-port="1"/>
		<edge from-layer="1317" from-port="2" to-layer="1318" to-port="0"/>
		<edge from-layer="1317" from-port="2" to-layer="1333" to-port="0"/>
		<edge from-layer="1317" from-port="2" to-layer="1324" to-port="0"/>
		<edge from-layer="1318" from-port="1" to-layer="1321" to-port="0"/>
		<edge from-layer="1319" from-port="0" to-layer="1321" to-port="1"/>
		<edge from-layer="1320" from-port="0" to-layer="1321" to-port="2"/>
		<edge from-layer="1321" from-port="3" to-layer="1323" to-port="0"/>
		<edge from-layer="1322" from-port="0" to-layer="1323" to-port="1"/>
		<edge from-layer="1323" from-port="2" to-layer="1332" to-port="0"/>
		<edge from-layer="1324" from-port="1" to-layer="1327" to-port="0"/>
		<edge from-layer="1325" from-port="0" to-layer="1327" to-port="1"/>
		<edge from-layer="1326" from-port="0" to-layer="1327" to-port="2"/>
		<edge from-layer="1327" from-port="3" to-layer="1329" to-port="0"/>
		<edge from-layer="1328" from-port="0" to-layer="1329" to-port="1"/>
		<edge from-layer="1329" from-port="2" to-layer="1332" to-port="1"/>
		<edge from-layer="1330" from-port="0" to-layer="1332" to-port="2"/>
		<edge from-layer="1331" from-port="0" to-layer="1332" to-port="3"/>
		<edge from-layer="1332" from-port="4" to-layer="1333" to-port="1"/>
		<edge from-layer="1333" from-port="2" to-layer="1335" to-port="0"/>
		<edge from-layer="1334" from-port="0" to-layer="1335" to-port="1"/>
		<edge from-layer="1335" from-port="2" to-layer="1337" to-port="0"/>
		<edge from-layer="1336" from-port="0" to-layer="1337" to-port="1"/>
		<edge from-layer="1337" from-port="2" to-layer="1338" to-port="1"/>
		<edge from-layer="1338" from-port="2" to-layer="1339" to-port="0"/>
		<edge from-layer="1339" from-port="2" to-layer="1340" to-port="0"/>
		<edge from-layer="1339" from-port="2" to-layer="1350" to-port="0"/>
		<edge from-layer="1339" from-port="2" to-layer="1348" to-port="0"/>
		<edge from-layer="1340" from-port="1" to-layer="1343" to-port="0"/>
		<edge from-layer="1341" from-port="0" to-layer="1343" to-port="1"/>
		<edge from-layer="1342" from-port="0" to-layer="1343" to-port="2"/>
		<edge from-layer="1343" from-port="3" to-layer="1345" to-port="0"/>
		<edge from-layer="1344" from-port="0" to-layer="1345" to-port="1"/>
		<edge from-layer="1345" from-port="2" to-layer="1347" to-port="0"/>
		<edge from-layer="1346" from-port="0" to-layer="1347" to-port="1"/>
		<edge from-layer="1347" from-port="2" to-layer="1348" to-port="1"/>
		<edge from-layer="1348" from-port="2" to-layer="1349" to-port="0"/>
		<edge from-layer="1349" from-port="1" to-layer="1351" to-port="0"/>
		<edge from-layer="1350" from-port="1" to-layer="1351" to-port="1"/>
		<edge from-layer="1351" from-port="2" to-layer="1374" to-port="0"/>
		<edge from-layer="1352" from-port="0" to-layer="1353" to-port="1"/>
		<edge from-layer="1353" from-port="2" to-layer="1355" to-port="0"/>
		<edge from-layer="1354" from-port="0" to-layer="1355" to-port="1"/>
		<edge from-layer="1355" from-port="2" to-layer="1371" to-port="0"/>
		<edge from-layer="1355" from-port="2" to-layer="1362" to-port="0"/>
		<edge from-layer="1355" from-port="2" to-layer="1356" to-port="0"/>
		<edge from-layer="1356" from-port="1" to-layer="1359" to-port="0"/>
		<edge from-layer="1357" from-port="0" to-layer="1359" to-port="1"/>
		<edge from-layer="1358" from-port="0" to-layer="1359" to-port="2"/>
		<edge from-layer="1359" from-port="3" to-layer="1361" to-port="0"/>
		<edge from-layer="1360" from-port="0" to-layer="1361" to-port="1"/>
		<edge from-layer="1361" from-port="2" to-layer="1370" to-port="0"/>
		<edge from-layer="1362" from-port="1" to-layer="1365" to-port="0"/>
		<edge from-layer="1363" from-port="0" to-layer="1365" to-port="1"/>
		<edge from-layer="1364" from-port="0" to-layer="1365" to-port="2"/>
		<edge from-layer="1365" from-port="3" to-layer="1367" to-port="0"/>
		<edge from-layer="1366" from-port="0" to-layer="1367" to-port="1"/>
		<edge from-layer="1367" from-port="2" to-layer="1370" to-port="1"/>
		<edge from-layer="1368" from-port="0" to-layer="1370" to-port="2"/>
		<edge from-layer="1369" from-port="0" to-layer="1370" to-port="3"/>
		<edge from-layer="1370" from-port="4" to-layer="1371" to-port="1"/>
		<edge from-layer="1371" from-port="2" to-layer="1373" to-port="0"/>
		<edge from-layer="1372" from-port="0" to-layer="1373" to-port="1"/>
		<edge from-layer="1373" from-port="2" to-layer="1374" to-port="1"/>
		<edge from-layer="1374" from-port="2" to-layer="1376" to-port="0"/>
		<edge from-layer="1375" from-port="0" to-layer="1376" to-port="1"/>
		<edge from-layer="1376" from-port="2" to-layer="1391" to-port="0"/>
		<edge from-layer="1376" from-port="2" to-layer="1383" to-port="0"/>
		<edge from-layer="1376" from-port="2" to-layer="1377" to-port="0"/>
		<edge from-layer="1377" from-port="1" to-layer="1380" to-port="0"/>
		<edge from-layer="1378" from-port="0" to-layer="1380" to-port="1"/>
		<edge from-layer="1379" from-port="0" to-layer="1380" to-port="2"/>
		<edge from-layer="1380" from-port="3" to-layer="1382" to-port="0"/>
		<edge from-layer="1381" from-port="0" to-layer="1382" to-port="1"/>
		<edge from-layer="1382" from-port="2" to-layer="1390" to-port="0"/>
		<edge from-layer="1383" from-port="1" to-layer="1386" to-port="0"/>
		<edge from-layer="1384" from-port="0" to-layer="1386" to-port="1"/>
		<edge from-layer="1385" from-port="0" to-layer="1386" to-port="2"/>
		<edge from-layer="1386" from-port="3" to-layer="1388" to-port="0"/>
		<edge from-layer="1387" from-port="0" to-layer="1388" to-port="1"/>
		<edge from-layer="1388" from-port="2" to-layer="1390" to-port="1"/>
		<edge from-layer="1389" from-port="0" to-layer="1390" to-port="2"/>
		<edge from-layer="1390" from-port="3" to-layer="1391" to-port="1"/>
		<edge from-layer="1391" from-port="2" to-layer="1393" to-port="0"/>
		<edge from-layer="1392" from-port="0" to-layer="1393" to-port="1"/>
		<edge from-layer="1393" from-port="2" to-layer="1395" to-port="0"/>
		<edge from-layer="1394" from-port="0" to-layer="1395" to-port="1"/>
		<edge from-layer="1395" from-port="2" to-layer="1396" to-port="0"/>
		<edge from-layer="1396" from-port="2" to-layer="1398" to-port="0"/>
		<edge from-layer="1397" from-port="0" to-layer="1398" to-port="1"/>
		<edge from-layer="1398" from-port="2" to-layer="1400" to-port="0"/>
		<edge from-layer="1399" from-port="0" to-layer="1400" to-port="1"/>
		<edge from-layer="1400" from-port="2" to-layer="1402" to-port="0"/>
		<edge from-layer="1401" from-port="0" to-layer="1402" to-port="1"/>
		<edge from-layer="1402" from-port="2" to-layer="1404" to-port="0"/>
		<edge from-layer="1402" from-port="2" to-layer="1422" to-port="1"/>
		<edge from-layer="1403" from-port="0" to-layer="1404" to-port="1"/>
		<edge from-layer="1404" from-port="2" to-layer="1406" to-port="0"/>
		<edge from-layer="1405" from-port="0" to-layer="1406" to-port="1"/>
		<edge from-layer="1406" from-port="2" to-layer="1407" to-port="0"/>
		<edge from-layer="1407" from-port="1" to-layer="1409" to-port="0"/>
		<edge from-layer="1408" from-port="0" to-layer="1409" to-port="1"/>
		<edge from-layer="1409" from-port="2" to-layer="1411" to-port="0"/>
		<edge from-layer="1410" from-port="0" to-layer="1411" to-port="1"/>
		<edge from-layer="1411" from-port="2" to-layer="1412" to-port="0"/>
		<edge from-layer="1412" from-port="1" to-layer="1414" to-port="0"/>
		<edge from-layer="1413" from-port="0" to-layer="1414" to-port="1"/>
		<edge from-layer="1414" from-port="2" to-layer="1416" to-port="0"/>
		<edge from-layer="1415" from-port="0" to-layer="1416" to-port="1"/>
		<edge from-layer="1416" from-port="2" to-layer="1417" to-port="0"/>
		<edge from-layer="1417" from-port="1" to-layer="1419" to-port="0"/>
		<edge from-layer="1418" from-port="0" to-layer="1419" to-port="1"/>
		<edge from-layer="1419" from-port="2" to-layer="1421" to-port="0"/>
		<edge from-layer="1420" from-port="0" to-layer="1421" to-port="1"/>
		<edge from-layer="1421" from-port="2" to-layer="1422" to-port="0"/>
		<edge from-layer="1422" from-port="2" to-layer="1424" to-port="0"/>
		<edge from-layer="1423" from-port="0" to-layer="1424" to-port="1"/>
		<edge from-layer="1424" from-port="2" to-layer="1426" to-port="0"/>
		<edge from-layer="1425" from-port="0" to-layer="1426" to-port="1"/>
		<edge from-layer="1426" from-port="2" to-layer="1428" to-port="0"/>
		<edge from-layer="1427" from-port="0" to-layer="1428" to-port="1"/>
		<edge from-layer="1428" from-port="2" to-layer="1430" to-port="0"/>
		<edge from-layer="1428" from-port="2" to-layer="1490" to-port="0"/>
		<edge from-layer="1428" from-port="2" to-layer="1533" to-port="1"/>
		<edge from-layer="1428" from-port="2" to-layer="1452" to-port="0"/>
		<edge from-layer="1429" from-port="0" to-layer="1430" to-port="1"/>
		<edge from-layer="1430" from-port="2" to-layer="1432" to-port="0"/>
		<edge from-layer="1431" from-port="0" to-layer="1432" to-port="1"/>
		<edge from-layer="1432" from-port="2" to-layer="1439" to-port="0"/>
		<edge from-layer="1432" from-port="2" to-layer="1433" to-port="0"/>
		<edge from-layer="1432" from-port="2" to-layer="1448" to-port="0"/>
		<edge from-layer="1433" from-port="1" to-layer="1436" to-port="0"/>
		<edge from-layer="1434" from-port="0" to-layer="1436" to-port="1"/>
		<edge from-layer="1435" from-port="0" to-layer="1436" to-port="2"/>
		<edge from-layer="1436" from-port="3" to-layer="1438" to-port="0"/>
		<edge from-layer="1437" from-port="0" to-layer="1438" to-port="1"/>
		<edge from-layer="1438" from-port="2" to-layer="1447" to-port="0"/>
		<edge from-layer="1439" from-port="1" to-layer="1442" to-port="0"/>
		<edge from-layer="1440" from-port="0" to-layer="1442" to-port="1"/>
		<edge from-layer="1441" from-port="0" to-layer="1442" to-port="2"/>
		<edge from-layer="1442" from-port="3" to-layer="1444" to-port="0"/>
		<edge from-layer="1443" from-port="0" to-layer="1444" to-port="1"/>
		<edge from-layer="1444" from-port="2" to-layer="1447" to-port="1"/>
		<edge from-layer="1445" from-port="0" to-layer="1447" to-port="2"/>
		<edge from-layer="1446" from-port="0" to-layer="1447" to-port="3"/>
		<edge from-layer="1447" from-port="4" to-layer="1448" to-port="1"/>
		<edge from-layer="1448" from-port="2" to-layer="1450" to-port="0"/>
		<edge from-layer="1449" from-port="0" to-layer="1450" to-port="1"/>
		<edge from-layer="1450" from-port="2" to-layer="1475" to-port="0"/>
		<edge from-layer="1451" from-port="0" to-layer="1452" to-port="1"/>
		<edge from-layer="1452" from-port="2" to-layer="1454" to-port="0"/>
		<edge from-layer="1453" from-port="0" to-layer="1454" to-port="1"/>
		<edge from-layer="1454" from-port="2" to-layer="1461" to-port="0"/>
		<edge from-layer="1454" from-port="2" to-layer="1455" to-port="0"/>
		<edge from-layer="1454" from-port="2" to-layer="1470" to-port="0"/>
		<edge from-layer="1455" from-port="1" to-layer="1458" to-port="0"/>
		<edge from-layer="1456" from-port="0" to-layer="1458" to-port="1"/>
		<edge from-layer="1457" from-port="0" to-layer="1458" to-port="2"/>
		<edge from-layer="1458" from-port="3" to-layer="1460" to-port="0"/>
		<edge from-layer="1459" from-port="0" to-layer="1460" to-port="1"/>
		<edge from-layer="1460" from-port="2" to-layer="1469" to-port="0"/>
		<edge from-layer="1461" from-port="1" to-layer="1464" to-port="0"/>
		<edge from-layer="1462" from-port="0" to-layer="1464" to-port="1"/>
		<edge from-layer="1463" from-port="0" to-layer="1464" to-port="2"/>
		<edge from-layer="1464" from-port="3" to-layer="1466" to-port="0"/>
		<edge from-layer="1465" from-port="0" to-layer="1466" to-port="1"/>
		<edge from-layer="1466" from-port="2" to-layer="1469" to-port="1"/>
		<edge from-layer="1467" from-port="0" to-layer="1469" to-port="2"/>
		<edge from-layer="1468" from-port="0" to-layer="1469" to-port="3"/>
		<edge from-layer="1469" from-port="4" to-layer="1470" to-port="1"/>
		<edge from-layer="1470" from-port="2" to-layer="1472" to-port="0"/>
		<edge from-layer="1471" from-port="0" to-layer="1472" to-port="1"/>
		<edge from-layer="1472" from-port="2" to-layer="1474" to-port="0"/>
		<edge from-layer="1473" from-port="0" to-layer="1474" to-port="1"/>
		<edge from-layer="1474" from-port="2" to-layer="1475" to-port="1"/>
		<edge from-layer="1475" from-port="2" to-layer="1476" to-port="0"/>
		<edge from-layer="1476" from-port="2" to-layer="1477" to-port="0"/>
		<edge from-layer="1476" from-port="2" to-layer="1487" to-port="0"/>
		<edge from-layer="1476" from-port="2" to-layer="1485" to-port="0"/>
		<edge from-layer="1477" from-port="1" to-layer="1480" to-port="0"/>
		<edge from-layer="1478" from-port="0" to-layer="1480" to-port="1"/>
		<edge from-layer="1479" from-port="0" to-layer="1480" to-port="2"/>
		<edge from-layer="1480" from-port="3" to-layer="1482" to-port="0"/>
		<edge from-layer="1481" from-port="0" to-layer="1482" to-port="1"/>
		<edge from-layer="1482" from-port="2" to-layer="1484" to-port="0"/>
		<edge from-layer="1483" from-port="0" to-layer="1484" to-port="1"/>
		<edge from-layer="1484" from-port="2" to-layer="1485" to-port="1"/>
		<edge from-layer="1485" from-port="2" to-layer="1486" to-port="0"/>
		<edge from-layer="1486" from-port="1" to-layer="1488" to-port="0"/>
		<edge from-layer="1487" from-port="1" to-layer="1488" to-port="1"/>
		<edge from-layer="1488" from-port="2" to-layer="1511" to-port="0"/>
		<edge from-layer="1489" from-port="0" to-layer="1490" to-port="1"/>
		<edge from-layer="1490" from-port="2" to-layer="1492" to-port="0"/>
		<edge from-layer="1491" from-port="0" to-layer="1492" to-port="1"/>
		<edge from-layer="1492" from-port="2" to-layer="1508" to-port="0"/>
		<edge from-layer="1492" from-port="2" to-layer="1499" to-port="0"/>
		<edge from-layer="1492" from-port="2" to-layer="1493" to-port="0"/>
		<edge from-layer="1493" from-port="1" to-layer="1496" to-port="0"/>
		<edge from-layer="1494" from-port="0" to-layer="1496" to-port="1"/>
		<edge from-layer="1495" from-port="0" to-layer="1496" to-port="2"/>
		<edge from-layer="1496" from-port="3" to-layer="1498" to-port="0"/>
		<edge from-layer="1497" from-port="0" to-layer="1498" to-port="1"/>
		<edge from-layer="1498" from-port="2" to-layer="1507" to-port="0"/>
		<edge from-layer="1499" from-port="1" to-layer="1502" to-port="0"/>
		<edge from-layer="1500" from-port="0" to-layer="1502" to-port="1"/>
		<edge from-layer="1501" from-port="0" to-layer="1502" to-port="2"/>
		<edge from-layer="1502" from-port="3" to-layer="1504" to-port="0"/>
		<edge from-layer="1503" from-port="0" to-layer="1504" to-port="1"/>
		<edge from-layer="1504" from-port="2" to-layer="1507" to-port="1"/>
		<edge from-layer="1505" from-port="0" to-layer="1507" to-port="2"/>
		<edge from-layer="1506" from-port="0" to-layer="1507" to-port="3"/>
		<edge from-layer="1507" from-port="4" to-layer="1508" to-port="1"/>
		<edge from-layer="1508" from-port="2" to-layer="1510" to-port="0"/>
		<edge from-layer="1509" from-port="0" to-layer="1510" to-port="1"/>
		<edge from-layer="1510" from-port="2" to-layer="1511" to-port="1"/>
		<edge from-layer="1511" from-port="2" to-layer="1513" to-port="0"/>
		<edge from-layer="1512" from-port="0" to-layer="1513" to-port="1"/>
		<edge from-layer="1513" from-port="2" to-layer="1514" to-port="0"/>
		<edge from-layer="1513" from-port="2" to-layer="1528" to-port="0"/>
		<edge from-layer="1513" from-port="2" to-layer="1520" to-port="0"/>
		<edge from-layer="1514" from-port="1" to-layer="1517" to-port="0"/>
		<edge from-layer="1515" from-port="0" to-layer="1517" to-port="1"/>
		<edge from-layer="1516" from-port="0" to-layer="1517" to-port="2"/>
		<edge from-layer="1517" from-port="3" to-layer="1519" to-port="0"/>
		<edge from-layer="1518" from-port="0" to-layer="1519" to-port="1"/>
		<edge from-layer="1519" from-port="2" to-layer="1527" to-port="0"/>
		<edge from-layer="1520" from-port="1" to-layer="1523" to-port="0"/>
		<edge from-layer="1521" from-port="0" to-layer="1523" to-port="1"/>
		<edge from-layer="1522" from-port="0" to-layer="1523" to-port="2"/>
		<edge from-layer="1523" from-port="3" to-layer="1525" to-port="0"/>
		<edge from-layer="1524" from-port="0" to-layer="1525" to-port="1"/>
		<edge from-layer="1525" from-port="2" to-layer="1527" to-port="1"/>
		<edge from-layer="1526" from-port="0" to-layer="1527" to-port="2"/>
		<edge from-layer="1527" from-port="3" to-layer="1528" to-port="1"/>
		<edge from-layer="1528" from-port="2" to-layer="1530" to-port="0"/>
		<edge from-layer="1529" from-port="0" to-layer="1530" to-port="1"/>
		<edge from-layer="1530" from-port="2" to-layer="1532" to-port="0"/>
		<edge from-layer="1531" from-port="0" to-layer="1532" to-port="1"/>
		<edge from-layer="1532" from-port="2" to-layer="1533" to-port="0"/>
		<edge from-layer="1533" from-port="2" to-layer="1535" to-port="0"/>
		<edge from-layer="1534" from-port="0" to-layer="1535" to-port="1"/>
		<edge from-layer="1535" from-port="2" to-layer="1537" to-port="0"/>
		<edge from-layer="1536" from-port="0" to-layer="1537" to-port="1"/>
		<edge from-layer="1537" from-port="2" to-layer="1539" to-port="0"/>
		<edge from-layer="1538" from-port="0" to-layer="1539" to-port="1"/>
		<edge from-layer="1539" from-port="2" to-layer="1559" to-port="1"/>
		<edge from-layer="1539" from-port="2" to-layer="1541" to-port="0"/>
		<edge from-layer="1540" from-port="0" to-layer="1541" to-port="1"/>
		<edge from-layer="1541" from-port="2" to-layer="1543" to-port="0"/>
		<edge from-layer="1542" from-port="0" to-layer="1543" to-port="1"/>
		<edge from-layer="1543" from-port="2" to-layer="1544" to-port="0"/>
		<edge from-layer="1544" from-port="1" to-layer="1546" to-port="0"/>
		<edge from-layer="1545" from-port="0" to-layer="1546" to-port="1"/>
		<edge from-layer="1546" from-port="2" to-layer="1548" to-port="0"/>
		<edge from-layer="1547" from-port="0" to-layer="1548" to-port="1"/>
		<edge from-layer="1548" from-port="2" to-layer="1549" to-port="0"/>
		<edge from-layer="1549" from-port="1" to-layer="1551" to-port="0"/>
		<edge from-layer="1550" from-port="0" to-layer="1551" to-port="1"/>
		<edge from-layer="1551" from-port="2" to-layer="1553" to-port="0"/>
		<edge from-layer="1552" from-port="0" to-layer="1553" to-port="1"/>
		<edge from-layer="1553" from-port="2" to-layer="1554" to-port="0"/>
		<edge from-layer="1554" from-port="1" to-layer="1556" to-port="0"/>
		<edge from-layer="1555" from-port="0" to-layer="1556" to-port="1"/>
		<edge from-layer="1556" from-port="2" to-layer="1558" to-port="0"/>
		<edge from-layer="1557" from-port="0" to-layer="1558" to-port="1"/>
		<edge from-layer="1558" from-port="2" to-layer="1559" to-port="0"/>
		<edge from-layer="1559" from-port="2" to-layer="1561" to-port="0"/>
		<edge from-layer="1560" from-port="0" to-layer="1561" to-port="1"/>
		<edge from-layer="1561" from-port="2" to-layer="1563" to-port="0"/>
		<edge from-layer="1562" from-port="0" to-layer="1563" to-port="1"/>
		<edge from-layer="1563" from-port="2" to-layer="1565" to-port="0"/>
		<edge from-layer="1564" from-port="0" to-layer="1565" to-port="1"/>
		<edge from-layer="1565" from-port="2" to-layer="1567" to-port="0"/>
		<edge from-layer="1565" from-port="2" to-layer="1589" to-port="0"/>
		<edge from-layer="1565" from-port="2" to-layer="1627" to-port="0"/>
		<edge from-layer="1565" from-port="2" to-layer="1670" to-port="1"/>
		<edge from-layer="1566" from-port="0" to-layer="1567" to-port="1"/>
		<edge from-layer="1567" from-port="2" to-layer="1569" to-port="0"/>
		<edge from-layer="1568" from-port="0" to-layer="1569" to-port="1"/>
		<edge from-layer="1569" from-port="2" to-layer="1585" to-port="0"/>
		<edge from-layer="1569" from-port="2" to-layer="1576" to-port="0"/>
		<edge from-layer="1569" from-port="2" to-layer="1570" to-port="0"/>
		<edge from-layer="1570" from-port="1" to-layer="1573" to-port="0"/>
		<edge from-layer="1571" from-port="0" to-layer="1573" to-port="1"/>
		<edge from-layer="1572" from-port="0" to-layer="1573" to-port="2"/>
		<edge from-layer="1573" from-port="3" to-layer="1575" to-port="0"/>
		<edge from-layer="1574" from-port="0" to-layer="1575" to-port="1"/>
		<edge from-layer="1575" from-port="2" to-layer="1584" to-port="0"/>
		<edge from-layer="1576" from-port="1" to-layer="1579" to-port="0"/>
		<edge from-layer="1577" from-port="0" to-layer="1579" to-port="1"/>
		<edge from-layer="1578" from-port="0" to-layer="1579" to-port="2"/>
		<edge from-layer="1579" from-port="3" to-layer="1581" to-port="0"/>
		<edge from-layer="1580" from-port="0" to-layer="1581" to-port="1"/>
		<edge from-layer="1581" from-port="2" to-layer="1584" to-port="1"/>
		<edge from-layer="1582" from-port="0" to-layer="1584" to-port="2"/>
		<edge from-layer="1583" from-port="0" to-layer="1584" to-port="3"/>
		<edge from-layer="1584" from-port="4" to-layer="1585" to-port="1"/>
		<edge from-layer="1585" from-port="2" to-layer="1587" to-port="0"/>
		<edge from-layer="1586" from-port="0" to-layer="1587" to-port="1"/>
		<edge from-layer="1587" from-port="2" to-layer="1612" to-port="0"/>
		<edge from-layer="1588" from-port="0" to-layer="1589" to-port="1"/>
		<edge from-layer="1589" from-port="2" to-layer="1591" to-port="0"/>
		<edge from-layer="1590" from-port="0" to-layer="1591" to-port="1"/>
		<edge from-layer="1591" from-port="2" to-layer="1598" to-port="0"/>
		<edge from-layer="1591" from-port="2" to-layer="1607" to-port="0"/>
		<edge from-layer="1591" from-port="2" to-layer="1592" to-port="0"/>
		<edge from-layer="1592" from-port="1" to-layer="1595" to-port="0"/>
		<edge from-layer="1593" from-port="0" to-layer="1595" to-port="1"/>
		<edge from-layer="1594" from-port="0" to-layer="1595" to-port="2"/>
		<edge from-layer="1595" from-port="3" to-layer="1597" to-port="0"/>
		<edge from-layer="1596" from-port="0" to-layer="1597" to-port="1"/>
		<edge from-layer="1597" from-port="2" to-layer="1606" to-port="0"/>
		<edge from-layer="1598" from-port="1" to-layer="1601" to-port="0"/>
		<edge from-layer="1599" from-port="0" to-layer="1601" to-port="1"/>
		<edge from-layer="1600" from-port="0" to-layer="1601" to-port="2"/>
		<edge from-layer="1601" from-port="3" to-layer="1603" to-port="0"/>
		<edge from-layer="1602" from-port="0" to-layer="1603" to-port="1"/>
		<edge from-layer="1603" from-port="2" to-layer="1606" to-port="1"/>
		<edge from-layer="1604" from-port="0" to-layer="1606" to-port="2"/>
		<edge from-layer="1605" from-port="0" to-layer="1606" to-port="3"/>
		<edge from-layer="1606" from-port="4" to-layer="1607" to-port="1"/>
		<edge from-layer="1607" from-port="2" to-layer="1609" to-port="0"/>
		<edge from-layer="1608" from-port="0" to-layer="1609" to-port="1"/>
		<edge from-layer="1609" from-port="2" to-layer="1611" to-port="0"/>
		<edge from-layer="1610" from-port="0" to-layer="1611" to-port="1"/>
		<edge from-layer="1611" from-port="2" to-layer="1612" to-port="1"/>
		<edge from-layer="1612" from-port="2" to-layer="1613" to-port="0"/>
		<edge from-layer="1613" from-port="2" to-layer="1614" to-port="0"/>
		<edge from-layer="1613" from-port="2" to-layer="1624" to-port="0"/>
		<edge from-layer="1613" from-port="2" to-layer="1622" to-port="0"/>
		<edge from-layer="1614" from-port="1" to-layer="1617" to-port="0"/>
		<edge from-layer="1615" from-port="0" to-layer="1617" to-port="1"/>
		<edge from-layer="1616" from-port="0" to-layer="1617" to-port="2"/>
		<edge from-layer="1617" from-port="3" to-layer="1619" to-port="0"/>
		<edge from-layer="1618" from-port="0" to-layer="1619" to-port="1"/>
		<edge from-layer="1619" from-port="2" to-layer="1621" to-port="0"/>
		<edge from-layer="1620" from-port="0" to-layer="1621" to-port="1"/>
		<edge from-layer="1621" from-port="2" to-layer="1622" to-port="1"/>
		<edge from-layer="1622" from-port="2" to-layer="1623" to-port="0"/>
		<edge from-layer="1623" from-port="1" to-layer="1625" to-port="0"/>
		<edge from-layer="1624" from-port="1" to-layer="1625" to-port="1"/>
		<edge from-layer="1625" from-port="2" to-layer="1648" to-port="0"/>
		<edge from-layer="1626" from-port="0" to-layer="1627" to-port="1"/>
		<edge from-layer="1627" from-port="2" to-layer="1629" to-port="0"/>
		<edge from-layer="1628" from-port="0" to-layer="1629" to-port="1"/>
		<edge from-layer="1629" from-port="2" to-layer="1630" to-port="0"/>
		<edge from-layer="1629" from-port="2" to-layer="1645" to-port="0"/>
		<edge from-layer="1629" from-port="2" to-layer="1636" to-port="0"/>
		<edge from-layer="1630" from-port="1" to-layer="1633" to-port="0"/>
		<edge from-layer="1631" from-port="0" to-layer="1633" to-port="1"/>
		<edge from-layer="1632" from-port="0" to-layer="1633" to-port="2"/>
		<edge from-layer="1633" from-port="3" to-layer="1635" to-port="0"/>
		<edge from-layer="1634" from-port="0" to-layer="1635" to-port="1"/>
		<edge from-layer="1635" from-port="2" to-layer="1644" to-port="0"/>
		<edge from-layer="1636" from-port="1" to-layer="1639" to-port="0"/>
		<edge from-layer="1637" from-port="0" to-layer="1639" to-port="1"/>
		<edge from-layer="1638" from-port="0" to-layer="1639" to-port="2"/>
		<edge from-layer="1639" from-port="3" to-layer="1641" to-port="0"/>
		<edge from-layer="1640" from-port="0" to-layer="1641" to-port="1"/>
		<edge from-layer="1641" from-port="2" to-layer="1644" to-port="1"/>
		<edge from-layer="1642" from-port="0" to-layer="1644" to-port="2"/>
		<edge from-layer="1643" from-port="0" to-layer="1644" to-port="3"/>
		<edge from-layer="1644" from-port="4" to-layer="1645" to-port="1"/>
		<edge from-layer="1645" from-port="2" to-layer="1647" to-port="0"/>
		<edge from-layer="1646" from-port="0" to-layer="1647" to-port="1"/>
		<edge from-layer="1647" from-port="2" to-layer="1648" to-port="1"/>
		<edge from-layer="1648" from-port="2" to-layer="1650" to-port="0"/>
		<edge from-layer="1649" from-port="0" to-layer="1650" to-port="1"/>
		<edge from-layer="1650" from-port="2" to-layer="1651" to-port="0"/>
		<edge from-layer="1650" from-port="2" to-layer="1665" to-port="0"/>
		<edge from-layer="1650" from-port="2" to-layer="1657" to-port="0"/>
		<edge from-layer="1651" from-port="1" to-layer="1654" to-port="0"/>
		<edge from-layer="1652" from-port="0" to-layer="1654" to-port="1"/>
		<edge from-layer="1653" from-port="0" to-layer="1654" to-port="2"/>
		<edge from-layer="1654" from-port="3" to-layer="1656" to-port="0"/>
		<edge from-layer="1655" from-port="0" to-layer="1656" to-port="1"/>
		<edge from-layer="1656" from-port="2" to-layer="1664" to-port="0"/>
		<edge from-layer="1657" from-port="1" to-layer="1660" to-port="0"/>
		<edge from-layer="1658" from-port="0" to-layer="1660" to-port="1"/>
		<edge from-layer="1659" from-port="0" to-layer="1660" to-port="2"/>
		<edge from-layer="1660" from-port="3" to-layer="1662" to-port="0"/>
		<edge from-layer="1661" from-port="0" to-layer="1662" to-port="1"/>
		<edge from-layer="1662" from-port="2" to-layer="1664" to-port="1"/>
		<edge from-layer="1663" from-port="0" to-layer="1664" to-port="2"/>
		<edge from-layer="1664" from-port="3" to-layer="1665" to-port="1"/>
		<edge from-layer="1665" from-port="2" to-layer="1667" to-port="0"/>
		<edge from-layer="1666" from-port="0" to-layer="1667" to-port="1"/>
		<edge from-layer="1667" from-port="2" to-layer="1669" to-port="0"/>
		<edge from-layer="1668" from-port="0" to-layer="1669" to-port="1"/>
		<edge from-layer="1669" from-port="2" to-layer="1670" to-port="0"/>
		<edge from-layer="1670" from-port="2" to-layer="1672" to-port="0"/>
		<edge from-layer="1671" from-port="0" to-layer="1672" to-port="1"/>
		<edge from-layer="1672" from-port="2" to-layer="1674" to-port="0"/>
		<edge from-layer="1673" from-port="0" to-layer="1674" to-port="1"/>
		<edge from-layer="1674" from-port="2" to-layer="1676" to-port="0"/>
		<edge from-layer="1675" from-port="0" to-layer="1676" to-port="1"/>
		<edge from-layer="1676" from-port="2" to-layer="1696" to-port="1"/>
		<edge from-layer="1676" from-port="2" to-layer="1678" to-port="0"/>
		<edge from-layer="1677" from-port="0" to-layer="1678" to-port="1"/>
		<edge from-layer="1678" from-port="2" to-layer="1680" to-port="0"/>
		<edge from-layer="1679" from-port="0" to-layer="1680" to-port="1"/>
		<edge from-layer="1680" from-port="2" to-layer="1681" to-port="0"/>
		<edge from-layer="1681" from-port="1" to-layer="1683" to-port="0"/>
		<edge from-layer="1682" from-port="0" to-layer="1683" to-port="1"/>
		<edge from-layer="1683" from-port="2" to-layer="1685" to-port="0"/>
		<edge from-layer="1684" from-port="0" to-layer="1685" to-port="1"/>
		<edge from-layer="1685" from-port="2" to-layer="1686" to-port="0"/>
		<edge from-layer="1686" from-port="1" to-layer="1688" to-port="0"/>
		<edge from-layer="1687" from-port="0" to-layer="1688" to-port="1"/>
		<edge from-layer="1688" from-port="2" to-layer="1690" to-port="0"/>
		<edge from-layer="1689" from-port="0" to-layer="1690" to-port="1"/>
		<edge from-layer="1690" from-port="2" to-layer="1691" to-port="0"/>
		<edge from-layer="1691" from-port="1" to-layer="1693" to-port="0"/>
		<edge from-layer="1692" from-port="0" to-layer="1693" to-port="1"/>
		<edge from-layer="1693" from-port="2" to-layer="1695" to-port="0"/>
		<edge from-layer="1694" from-port="0" to-layer="1695" to-port="1"/>
		<edge from-layer="1695" from-port="2" to-layer="1696" to-port="0"/>
		<edge from-layer="1696" from-port="2" to-layer="1698" to-port="0"/>
		<edge from-layer="1697" from-port="0" to-layer="1698" to-port="1"/>
		<edge from-layer="1698" from-port="2" to-layer="1700" to-port="0"/>
		<edge from-layer="1699" from-port="0" to-layer="1700" to-port="1"/>
		<edge from-layer="1700" from-port="2" to-layer="1702" to-port="0"/>
		<edge from-layer="1701" from-port="0" to-layer="1702" to-port="1"/>
		<edge from-layer="1702" from-port="2" to-layer="1704" to-port="0"/>
		<edge from-layer="1703" from-port="0" to-layer="1704" to-port="1"/>
		<edge from-layer="1704" from-port="2" to-layer="1706" to-port="0"/>
		<edge from-layer="1705" from-port="0" to-layer="1706" to-port="1"/>
		<edge from-layer="1706" from-port="2" to-layer="1708" to-port="0"/>
		<edge from-layer="1707" from-port="0" to-layer="1708" to-port="1"/>
		<edge from-layer="1708" from-port="2" to-layer="1710" to-port="0"/>
		<edge from-layer="1709" from-port="0" to-layer="1710" to-port="1"/>
		<edge from-layer="1710" from-port="2" to-layer="1713" to-port="0"/>
		<edge from-layer="1711" from-port="0" to-layer="1713" to-port="1"/>
		<edge from-layer="1712" from-port="0" to-layer="1713" to-port="2"/>
		<edge from-layer="1713" from-port="3" to-layer="1715" to-port="0"/>
		<edge from-layer="1713" from-port="4" to-layer="1718" to-port="0"/>
		<edge from-layer="1714" from-port="0" to-layer="1715" to-port="1"/>
		<edge from-layer="1715" from-port="2" to-layer="1716" to-port="0"/>
		<edge from-layer="1717" from-port="0" to-layer="1718" to-port="1"/>
		<edge from-layer="1718" from-port="2" to-layer="1719" to-port="0"/>
	</edges>
	<meta_data>
		<MO_version value="2021.4.0-3827-c5b65f2cb1d-releases/2021/4"/>
		<cli_parameters>
			<caffe_parser_path value="DIR"/>
			<data_type value="FP16"/>
			<disable_nhwc_to_nchw value="True"/>
			<disable_omitting_optional value="False"/>
			<disable_resnet_optimization value="False"/>
			<disable_weights_compression value="False"/>
			<enable_concat_optimization value="False"/>
			<enable_flattening_nested_params value="False"/>
			<enable_ssd_gluoncv value="False"/>
			<extensions value="DIR"/>
			<framework value="onnx"/>
			<freeze_placeholder_with_value value="{}"/>
			<generate_deprecated_IR_V7 value="False"/>
			<input value="input_ids,attention_mask,token_type_ids"/>
			<input_model value="DIR/model.onnx"/>
			<input_model_is_text value="False"/>
			<input_shape value="[1,384],[1,384],[1,384]"/>
			<k value="DIR/CustomLayersMapping.xml"/>
			<keep_shape_ops value="True"/>
			<legacy_ir_generation value="False"/>
			<legacy_mxnet_model value="False"/>
			<log_level value="ERROR"/>
			<mean_scale_values value="{}"/>
			<mean_values value="()"/>
			<model_name value="bert-small-uncased-whole-word-masking-squad-0001"/>
			<output value="['output_s', 'output_e']"/>
			<output_dir value="DIR"/>
			<placeholder_data_types value="{}"/>
			<placeholder_shapes value="{'input_ids': array([  1, 384]), 'attention_mask': array([  1, 384]), 'token_type_ids': array([  1, 384])}"/>
			<progress value="False"/>
			<remove_memory value="False"/>
			<remove_output_softmax value="False"/>
			<reverse_input_channels value="False"/>
			<save_params_from_nd value="False"/>
			<scale_values value="()"/>
			<silent value="False"/>
			<static_shape value="False"/>
			<stream_output value="False"/>
			<transform value=""/>
			<unset unset_cli_parameters="batch, counts, disable_fusing, disable_gfusing, finegrain_fusing, input_checkpoint, input_meta_graph, input_proto, input_symbol, mean_file, mean_file_offsets, move_to_preprocess, nd_prefix_name, pretrained_model_name, saved_model_dir, saved_model_tags, scale, tensorboard_logdir, tensorflow_custom_layer_libraries, tensorflow_custom_operations_config_update, tensorflow_object_detection_api_pipeline_config, tensorflow_use_custom_operations_config, transformations_config"/>
		</cli_parameters>
	</meta_data>
</net>
